model_weights.pth (torch, 142223 bytes, 8 tensors)

instance_encoder.encoder.0.weight f4 [128, 9]
-0.39692983 0.0033904165 -0.23651005 0.23866273 -0.05955497 0.16943471 -0.24901585 -0.044922788
-0.07721308 0.39912656 -0.7515943 -0.02763778 -0.07105234 0.05561164 0.01810852 0.05646696
0.03576393 -0.078577794 1.0844461 -0.24853772 0.028439745 0.6676542 0.3762824 -0.3093449
0.24947663 -0.08443382 0.09487777 0.4260758 -0.47162127 -0.22183701 0.23765677 -0.16724046
0.008511185 -0.18529896 -0.31002575 0.13493389 -0.06003804 -0.16782515 -0.3174919 -0.06807912
-0.11905374 0.119303234 -0.29493824 0.5263422 -0.08295977 0.2386606 -0.07119623 -0.17765582
-0.13916096 0.16250828 -0.19590256 -0.14147747 0.16419241 -0.021660715 3.3059666 -0.18564503
0.35123208 0.04508486 -0.7532832 -0.43601447 0.04568662 0.09341881 0.16612218 2.8489406
0.2288295 0.3637247 -0.66419435 -1.5858678 -0.2775943 1.3205587 0.4349303 -0.090624526
-0.9942479 -0.037051253 0.011942945 -0.8453044 -0.34828237 0.17218278 -0.045867372 -0.17420767
-0.32909006 -0.2342118 0.0638435 0.3117367 0.060534477 -0.14334524 -0.346956 0.31225133
-0.31861475 -0.18534227 0.22838488 0.15696344 -0.07160762 0.30045542 -0.019975543 -0.23544344
0.07883516 -0.13133737 0.07959473 0.26319748 -1.1632378 -0.45468456 1.8272699 0.48855856
-0.16422087 -0.40664765 -0.16571695 0.0645191 -0.3112184 0.5394095 0.10497463 -0.3698091
0.36841398 -0.072200425 -0.24466996 -0.061286345 -0.34807938 0.09642138 0.23678531 -0.38035002
0.34367082 -0.15686928 0.04059054 -0.11782202 -0.10409062 0.21127483 -0.24843794 0.021976018
0.035233576 0.25066635 0.38631785 -0.21598727 0.23037952 0.53164476 -0.111895695 0.19802141
-0.08135631 -0.10933367 0.045959063 -0.031832073 0.19240437 -0.08720637 -0.055847045 -0.26548693
0.12049895 -0.29356894 -0.22990742 0.13053396 -0.42152646 0.1300932 0.25547948 -0.4897984
0.053902764 0.63131094 0.008136484 -0.09385801 -0.50815326 -0.6635789 -0.105037406 0.32354784
-0.32413933 0.17890269 -0.110986985 -0.46849492 0.052393608 -0.38986027 -0.31859234 0.021478944
0.33594114 -0.4356281 -0.10994395 -0.015864244 -0.12822835 0.12927258 -0.00057233433 0.45892605
-0.09986146 -0.020592395 -0.25275993 -0.31015408 -0.22685713 -0.021392655 0.11080503 0.17225589
0.43064433 -0.07334929 -0.14231227 0.45344615 -0.2049514 -0.90834296 0.22232004 0.11969418
0.9205549 0.6312083 -0.46779597 -1.3687125 0.24726841 0.32157698 -1.8073736 0.577086
0.24066477 0.07066884 0.01657655 -0.44435444 -1.0883365 0.3506114 -0.037615493 -0.12843189
0.1802549 -0.1287048 -0.4538551 -0.054445878 -0.36013675 -0.34479356 0.57852733 0.30488327
-0.44996607 -1.4188678 -0.095204316 -1.2866263 0.7370544 0.2391045 0.7666406 -1.9478462
-0.167895 0.20758459 -0.26170158 -0.2489988 -0.15014455 0.2958124 -0.08334522 -0.05644986
-0.08286199 -0.2532934 0.53011215 -0.27248016 -0.012829283 2.4115455 0.6957518 -0.3771598
-0.9877869 -0.011903666 0.11587132 -0.16268785 -0.22877157 -0.016394824 -0.63409406 -0.6583765
-0.03832833 0.27210963 -0.584007 0.06464011 0.22703175 0.0864395 -0.3258535 0.028715573
00000000: 633a cbbe c031 5e3b b12f 72be 0164 743e
00000010: eaef 73bd 4b80 2d3e 03fe 7ebe f500 38bd
00000020: e421 9ebd 515a cc3e 7c68 40bf a068 e2bc
00000030: e483 91bd 08c9 633d 5258 943c e649 673d
00000040: 337d 123d 65ed a0bd 21cf 8a3f ac80 7ebe
00000050: 78fa e83c 63eb 2a3f 16a8 c03e 7462 9ebe
00000060: cd76 7f3e a3eb acbd 474f c23d 9b26 da3e
00000070: 5878 f1be 3e29 63be 4c5c 733e 1541 2bbe
00000080: 7f72 0b3c 03bf 3dbe b2bb 9ebe 1c2c 0a3e
00000090: 73ea 75bd 5bda 2bbe 4c8e a2be 116d 8bbd
000000a0: 72d2 f3bd 4155 f43d 2502 97be 5dbe 063f
000000b0: d0e6 a9bd 7263 743e 54cf 91bd 68eb 35be
000000c0: 3680 0ebe 9268 263e ae9a 48be 78df 10be
000000d0: 0e22 283e d071 b1bc f594 5340 bb19 3ebe
000000e0: b1d4 b33e e7aa 383d 2bd7 40bf 4a3d dfbe
000000f0: e521 3b3d 5c52 bf3d ef1b 2a3e 0b55 3640
00000100: 4852 6a3e 203a ba3e a408 2abf b7fd cabf
00000110: d720 8ebe 1108 a93f 2faf de3e 5a99 b9bd
00000120: 0887 7ebf 0ec3 17bd 58ac 433c df65 58bf
00000130: 1152 b2be af50 303e 6ddf 3bbd 7f63 32be
00000140: 7e7e a8be 38d5 6fbe 62c0 823d f49b 9f3e
00000150: 00f3 773d 18c9 12be 38a4 b1be 68df 9f3e
00000160: 7921 a3be 5dca 3dbe badd 693e 06bb 203e
00000170: 04a7 92bd 4bd5 993e c0a3 a3bc 1618 71be
00000180: 5474 a13d 4e7d 06be 9002 a33d d2c1 863e
00000190: fae4 94bf 6acc e8be fbe3 e93f 5924 fa3e
000001a0: 8429 28be 1f34 d0be b4b1 29be 9722 843d
000001b0: 0558 9fbe be16 0a3f f0fc d63d 9e57 bdbe
000001c0: c2a0 bc3e d1dd 93bd c38a 7abe 6407 7bbd
000001d0: 7637 b2be 9378 c53d d977 723e 3dbd c2be
000001e0: 9ff5 af3e 57a2 20be 4442 263d ac4c f1bd
000001f0: 772d d5bd 6e58 583e 8466 7ebe 0d07 b43c
00000200: 1551 103d 5757 803e 74cb c53e c42b 5dbe
00000210: 9ce8 6b3e df19 083f 9229 e5bd 20c6 4a3e
00000220: 239e a6bd 55ea dfbd 923f 3c3d 5962 02bd
00000230: a705 453e 4199 b2bd dfbf 64bd e7ed 87be
00000240: 27c8 f63d ab4e 96be da6c 6bbe b2aa 053e
00000250: 51d2 d7be 2737 053e 35ce 823e dbc6 fabe
00000260: 25c9 5c3d 989d 213f e34e 053c a138 c0bd
00000270: 5516 02bf 4fe0 29bf da1d d7bd 10a8 a53e
00000280: 97f5 a5be 4432 373e 254d e3bd 91de efbe
00000290: ae9a 563d c49b c7be 891e a3be 9cf4 af3c
000002a0: 7a00 ac3e a50a dfbe 4b2a e1bd bbf5 81bc
000002b0: 4b4e 03be 0860 043e b508 16ba 5bf8 ea3e
000002c0: 2a84 ccbd 62b1 a8bc c069 81be 84cc 9ebe
000002d0: 3c4d 68be a63f afbc bfed e23d d963 303e
000002e0: 6a7d dc3e 2738 96bd 4fba 11be 182a e83e
000002f0: c8de 51be 2a89 68bf dda7 633e 3922 f53d
00000300: 7ca9 6b3f de96 213f f482 efbe f931 afbf
00000310: ee33 7d3e bda5 a43e 0558 e7bf e8bb 133f
00000320: d370 763e d3ba 903d 8ccb 873c 6d82 e3be
00000330: 9c4e 8bbf 5683 b33e b412 1abd a683 03be
00000340: be94 383e 31cb 03be b25f e8be a402 5fbd
00000350: d863 b8be c888 b0be 5e1a 143f a919 9c3e
00000360: f461 e6be 769d b5bf 7bfa c2bd 2cb0 a4bf
00000370: 99af 3c3f cfd7 743e 8f42 443f 0653 f9bf
00000380: abec 2bbe 0e91 543e c0fd 85be 8bf9 7ebe
00000390: 7ebf 19be b974 973e e6b0 aabd f837 67bd
000003a0: 8cb3 a9bd acaf 81be 6eb5 073f 8582 8bbe
000003b0: ea31 52bc c356 1a40 ca1c 323f 171b c1be
000003c0: 9adf 7cbf 9807 43bc f14d ed3d a597 26be
000003d0: 1843 6abe 704e 86bc fd53 22bf 5d8b 28bf
000003e0: 2bfe 1cbd f451 8b3e 7c81 15bf 0962 843d
000003f0: 037b 683e 3107 b13d 45d6 a6be ec3c eb3c

instance_encoder.encoder.0.bias f4 [128]
-0.3728076 0.33802605 0.6404483 -0.20596963 -0.2062508 -0.06741238 1.1188375 1.2197795
-0.6452213 0.24818732 0.25108293 -0.26549527 -0.10010137 0.09193307 0.0055055334 0.067244805
-0.3705587 -0.16297275 0.22930916 -0.25206745 0.11191319 -0.14822419 -0.41112623 0.27235216
0.21874133 -0.068513274 0.09032037 -0.28609022 0.25320354 -0.1618867 -0.031584516 -0.12783334
-0.28272888 0.22261158 -0.51439375 -0.06071915 -0.21563357 -0.34224626 0.13687772 -0.27548936
-0.11367318 0.0861285 -0.31327033 -0.02143833 -0.21386659 -0.025024056 -0.5411665 0.01800263
0.05824305 0.02004325 -0.10108491 0.059032876 0.00011142306 -0.13005176 -0.08732267 -0.38332066
0.24745663 -0.20594424 -0.11188909 -0.39479193 0.0055201477 0.23659435 -0.12752019 -0.073507175
-0.19983856 -0.12872495 0.0336152 -0.20450494 -0.0745616 -0.30367267 -0.21771646 -0.33122307
-0.24746628 -0.16948594 0.176658 0.23569123 -0.27689555 -0.22396493 -0.30788407 -0.21912023
-0.36572227 -0.42532012 -0.38219687 -0.6373543 -1.1180526 0.829245 0.08126993 -0.055866368
-0.35832486 -1.2388462 0.8985856 0.049246456 -1.4259151 1.2656604 0.3018226 -1.5771956
-0.24097165 -0.2223381 0.3546058 -0.39431423 -1.1268928 0.017985908 -0.042961057 0.14866064
0.20706086 -0.17386866 -1.203145 -0.34885135 0.02209843 -1.2640188 -0.41346225 -0.10906844
-0.021799628 -0.102934286 0.27170768 -0.2273619 0.14707278 0.62693274 -0.18285365 -0.1301419
0.12388234 -0.04531452 -0.27203947 1.1977708 1.2937036 -0.18880312 -0.08315918 0.021575183
00000000: a3e0 bebe c011 ad3e 6bf4 233f b4e9 52be
00000010: 6933 53be 800f 8abd 1136 8f3f bc21 9c3f
00000020: 392d 25bf d124 7e3e f18d 803e ffee 87be
00000030: f201 cdbd 6847 bc3d c367 b43b a5b7 893d
00000040: dfb9 bdbe 54e2 26be 05d0 6a3e fc0e 81be
00000050: be32 e53d 15c8 17be 237f d2be be71 8b3e
00000060: bafd 5f3e b050 8cbd e3f9 b83d 6b7a 92be
00000070: e5a3 813e a1c5 25be c45e 01bd bee6 02be
00000080: d7c1 90be 4af4 633e 4faf 03bf a5b4 78bd
00000090: 0ccf 5cbe e73a afbe ac29 0c3e f10c 8dbe
000000a0: 7ccd e8bd 2464 b03d f864 a0be 709f afbc
000000b0: d8ff 5abe 40ff ccbc e389 0abf 407a 933c
000000c0: 4490 6e3d be31 a43c 9b05 cfbd 75cc 713d
000000d0: cdab e938 4a2c 05be 3ad6 b2bd 9b42 c4be
000000e0: 4565 7d3e 0ce3 52be 1b26 e5bd 2b22 cabe
000000f0: 5be2 b43b ca45 723e a794 02be ee8a 96bd
00000100: 7ba2 4cbe 79d0 03be 18b0 093d be69 51be
00000110: c1b3 98bd fc7a 9bbe 10f1 5ebe 1296 a9be
00000120: cd67 7dbe b98d 2dbe d6e5 343e 0b59 713e
00000130: 41c5 8dbe 1057 65be fba2 9dbe 0e61 60be
00000140: f33f bbbe 8fc3 d9be 4faf c3be a729 23bf
00000150: 591c 8fbf 6649 543f d970 a63d 22d4 64bd
00000160: 5b76 b7be 8392 9ebf b509 663f a7b6 493d
00000170: 6384 b6bf 2901 a23f 7e88 9a3e 8ce1 c9bf
00000180: 46c1 76be 99ac 63be e48e b53e 8ee3 c9be
00000190: 063e 90bf 2f57 933c eff7 2fbd 7f3a 183e
000001a0: c307 543e a00a 32be a800 9abf a59c b2be
000001b0: c407 b53c 5ecb a1bf 53b1 d3be 465f dfbd
000001c0: 2295 b2bc 36cf d2bd 451d 8b3e 8fd1 68be
000001d0: 3f9a 163e aa7e 203f fd3d 3bbe eb43 05be
000001e0: 06b6 fd3d b89b 39bd c248 8bbe 8e50 993f
000001f0: 1498 a53f 9b55 41be 5c4f aabd 70be b03c

instance_encoder.encoder.2.weight f4 [128, 128]
-0.05052679 0.036107503 -0.2610554 -0.024090616 -0.053059205 -0.010103054 -0.1700732 0.030020066
0.0032472592 -0.024628967 -0.02868231 -0.24514042 0.026602168 0.10992771 -0.03130444 0.11728275
0.015943656 -0.050636508 0.025846353 0.035011422 -0.046877068 0.12895915 0.07868691 -0.24590586
-0.32393143 0.026917927 -0.24158464 0.0083464645 -0.036752976 -0.048996586 -0.10546671 0.043516476
0.017763637 0.016489342 -0.073809594 -0.13515869 -0.0010349163 -0.114367835 -0.2003928 -0.079053946
0.00024726757 0.04500044 0.09251678 0.078344576 0.022737928 0.053761356 -0.2760094 -0.028343283
0.065278985 -0.07678867 -0.032875605 -0.046434887 -0.09849967 -0.049565125 -0.08752753 -0.12549849
0.084172174 -0.085628815 -0.06338316 -0.085974105 -0.08270574 -0.13112405 0.016238065 0.026652735
0.08060627 -0.052604593 -0.00061624823 -0.013738304 0.021370713 -0.0656125 -0.07989524 -0.103175245
-0.030768264 -0.25958896 -0.110995494 -0.01573035 -0.14362976 -0.028948275 -0.13254695 -0.34477434
0.021912122 -0.14835982 0.038922556 -0.10399697 -0.103694186 -0.028441323 0.0170687 0.025137726
0.009670202 0.035807893 -0.12517156 0.107547104 -0.12692083 -0.052306022 -0.064013824 -0.044495936
0.08386054 -0.079835996 -0.04598904 -0.012908881 -0.12556912 -0.19619384 -0.1388905 -0.024263509
-0.17307152 -0.06596854 -0.23946533 0.011692452 -0.072667785 0.17934911 0.024243494 0.08386444
0.060569834 -0.062544055 0.038112454 -0.16169149 0.16262588 -0.15614119 -0.051634543 -0.07504165
-0.000113217946 -0.040795453 0.085927196 -0.11169542 -0.23449938 0.005327247 -0.103222266 0.019677237
-0.042218544 -0.13231137 0.16984552 0.06294695 0.5951426 -0.029870704 0.03936083 -0.03339339
-0.15933356 -0.061740447 0.037892155 -0.11756786 0.21563716 -0.007682471 0.61401033 -0.08050248
-0.006935716 -0.06933184 -0.042941026 0.3072759 0.74278235 -0.17683476 0.26805997 0.6696529
0.18598758 0.08717088 -0.051759165 0.06788407 0.018108036 0.0030019793 0.40199792 -0.08937498
-0.055881307 0.00504265 -0.035225756 0.5895625 0.06641797 0.3205637 0.34090316 0.09762666
0.2253422 -0.021198802 0.43999758 0.02646292 -0.061230257 -0.08086917 -0.09118932 0.011814676
-0.0055811172 0.31072223 0.078905925 0.13362686 0.485452 -0.03260595 -0.019941619 0.35458064
-0.053556014 -0.030723251 -0.034658656 0.04704781 -0.031218551 0.058256764 0.015043555 0.012484473
0.37453902 0.03753175 -0.12998539 0.042111553 -0.05356283 -0.10775243 -0.07095207 -0.11523288
-0.05654656 0.6511011 -8.120073e-05 -0.06908866 -0.09300287 0.18033287 0.4260179 0.20305032
0.022234878 -0.34208733 0.050035942 0.23711856 -0.23288077 0.039146047 0.1969557 0.008377317
0.07018043 0.106455274 -0.24584304 0.029541751 -0.14207171 -0.050318945 -0.064782664 -0.06590834
-0.044236045 0.21007513 0.05317987 0.412996 -0.24256375 -0.21319783 -0.02291252 0.38168356
0.06276061 -0.080479376 -0.27872586 -0.014089198 -0.034693517 0.011112262 0.14775304 0.04817278
-0.0654064 0.022121765 0.01360932 0.65030146 0.019866975 0.22177969 -0.10145048 0.069431774
-0.11470561 0.008484289 -0.048629288 -0.2677532 -0.05288836 0.020286039 0.3681891 0.019743994
00000000: 2ef5 4ebd 76e5 133d 0ea9 85be af59 c5bc
00000010: 9c54 59bd 4887 25bc ab27 2ebe a4ec f53c
00000020: f8cf 543b b0c2 c9bc 2af7 eabc 1706 7bbe
00000030: caec d93c c721 e13d 1639 00bd f031 f03d
00000040: 459c 823c 3a68 4fbd bbbb d33c 2368 0f3d
00000050: 2b02 40bd de0d 043e 9a26 a13d bfce 7bbe
00000060: 57da a5be fc82 dc3c f761 77be 9cbf 083c
00000070: 4a8a 16bd a5b0 48bd eefe d7bd 553e 323d
00000080: 0c85 913c a814 873c 7c29 97bd 0a67 0abe
00000090: 07a6 87ba af39 eabd c533 4dbe 09e7 a1bd
000000a0: b1a3 8139 6252 383d 7079 bd3d 1f73 a03d
000000b0: e444 ba3c de34 5c3d 1b51 8dbe 2c30 e8bc
000000c0: fdb0 853d 6143 9dbd 92a8 06bd 8232 3ebd
000000d0: 32ba c9bd cd04 4bbd a241 b3bd ad82 00be
000000e0: 7662 ac3d 295e afbd 08cf 81bd 3113 b0bd
000000f0: a161 a9bd 6245 06be b105 853c d656 da3c
00000100: e614 a53d ea77 57bd b88b 21ba a016 61bc
00000110: a211 af3c d95f 86bd 1ea0 a3bd 8b4d d3bd
00000120: ba0d fcbc d8e8 84be 9b51 e3bd efdc 80bc
00000130: ae13 13be ef24 edbc 63ba 07be 4386 b0be
00000140: 0d81 b33c a3eb 17be 426d 1f3d 5dfc d4bd
00000150: 9e5d d4bd c7fd e8bc a9d3 8b3c a2ed cd3c
00000160: c46f 1e3c 4cab 123d f92c 00be a841 dc3d
00000170: 89f7 01be d73e 56bd ae19 83bd 5f41 36bd
00000180: 13bf ab3d 0e81 a3bd 015f 3cbd c57f 53bc
00000190: 3195 00be 0ae7 48be 5039 0ebe 44c4 c6bc
000001a0: a939 31be 841a 87bd 6636 75be b391 3f3c
000001b0: d9d2 94bd 4ba7 373e 4b9a c63c 1fc1 ab3d
000001c0: 1318 783d 1917 80bd ce1b 1c3d 7492 25be
000001d0: 6687 263e 7ae3 1fbe be7e 53bd 70af 99bd
000001e0: 6c6f edb8 2219 27bd 99fa af3d 92c0 e4bd
000001f0: 9b20 70be 3090 ae3b 3266 d3bd 2832 a13c
00000200: 5aed 2cbd a27c 07be fceb 2d3e 55ea 803d
00000210: 445b 183f 68b3 f4bc d238 213d 82c7 08bd
00000220: 5628 23be 8de3 7cbd ce34 1b3d 6bc7 f0bd
00000230: fdcf 5c3e 3dbd fbbb c82f 1d3f 7cde a4bd
00000240: 0145 e3bb dafd 8dbd eee2 2fbd 4453 9d3e
00000250: fc26 3e3f 2c14 35be 283f 893e 5f6e 2b3f
00000260: 8773 3e3e a586 b23d 6b01 54bd ce06 8b3d
00000270: 4e57 943c dbbc 443b acd2 cd3e 3b0a b7bd
00000280: cce3 64bd d03c a53b e248 10bd 91ed 163f
00000290: 2506 883d ed20 a43e dc8a ae3e 7cf0 c73d
000002a0: 1bc0 663e 1ca9 adbc 5d47 e13e c4c8 d83c
000002b0: 94cc 7abd bc9e a5bd 77c1 babd 5892 413c
000002c0: cee1 b6bb fc16 9f3e 6e99 a13d 7bd5 083e
000002d0: 2a8d f83e d18d 05bd 9b5c a3bc 988b b53e
000002e0: 8d5d 5bbd 54af fbbc 3cf6 0dbd 34b5 403d
000002f0: 0cbe ffbc a59e 6e3d 3e79 763c ad8b 4c3c
00000300: 94c3 bf3e e4ba 193d e41a 05be 2a7d 2c3d
00000310: b364 5bbd 4ead dcbd 524f 91bd 37ff ebbd
00000320: 5e9d 67bd 90ae 263f 4f4a aab8 5b7e 8dbd
00000330: 4a78 bebd 2ea9 383e 051f da3e 6cec 4f3e
00000340: eb25 b63c 1226 afbe 7df2 4c3d 35cf 723e
00000350: 4c78 6ebe 9b57 203d c1ae 493e 0441 093c
00000360: c2ba 8f3d 3905 da3d 47be 7bbe 8b01 f23c
00000370: 3f7b 11be 3d1b 4ebd c6ac 84bd f4fa 86bd
00000380: db30 35bd ef1d 573e 23d3 593d 3674 d33e
00000390: a262 78be 8850 5abe 0ab3 bbbc 076c c33e
000003a0: a288 803d 5fd2 a4bd 28b5 8ebe 61d6 66bc
000003b0: ca1a 0ebd 3410 363c 934c 173e d250 453d
000003c0: caf3 85bd b438 b53c a0f9 5e3c 287a 263f
000003d0: 11c0 a23c 371a 633e 45c5 cfbd 3f32 8e3d
000003e0: c6ea eabd b001 0b3c 812f 47bd f316 89be
000003f0: 77a1 58bd e82e a63c 4883 bc3e 28be a13c

instance_encoder.encoder.2.bias f4 [128]
-0.36262718 -0.41404846 -0.48122236 -0.4176277 -0.26475614 -0.124144614 -0.06999928 -0.0044047586
-0.39739165 0.628287 -0.25315216 -0.09641839 -0.33117855 -0.037490528 -0.15046602 0.03331531
-0.23321487 0.08322991 -0.3066793 -0.048549663 0.08838086 -0.11841218 -0.035435323 -0.12945986
-0.08741166 -0.2760446 -0.321136 -0.07389056 -0.13244346 -0.07700125 -0.086313 -0.29200727
1.3912392 0.49362502 -0.18257698 -0.014731564 -0.43273497 -0.15026979 -0.014550021 -0.16102763
-0.008325389 -0.15023538 -0.060123835 -0.079108804 -0.4300524 -0.032172617 -0.14401904 -0.18522288
-0.16210845 -0.02768702 -0.14648092 -1.1229632 -0.045181062 0.015632125 -0.06660415 -0.08356639
-0.24301413 -0.045041725 -0.12126282 -0.4804605 0.90072316 -0.035265666 -0.15087889 -0.65309787
0.017667498 -0.054455515 -0.1075916 -0.039433505 -0.24586862 -0.88446844 -0.26843694 -0.14485669
-0.24347207 -0.089935966 -0.12949435 -0.16599125 -0.10030038 -0.054151475 -0.16110802 -0.17443106
0.021063196 0.014448899 -0.12607217 0.011813192 -0.022106646 0.05815879 -0.029518621 -0.9726015
0.48582205 -0.09272166 -0.2267671 0.048246294 -0.26192096 -0.3559657 -0.04551958 0.6272324
-0.02746841 -0.1478244 -0.010615262 0.32712552 -0.62973905 0.012930546 -0.28609782 -0.08148303
-0.36729166 -0.6741452 -0.09562101 0.048517823 -1.3925482 -0.067691214 -0.05154569 -0.30259717
-0.06627753 -0.04033111 0.0021557524 -1.3395981 -0.063316286 -0.8869304 -0.12780273 -0.07947537
-0.37878615 1.2765292 -0.67082876 -0.38819197 -0.0078103463 -0.34408292 -0.13520685 -0.003163652
00000000: 45aa b9be 29fe d3be c762 f6be 4cd3 d5be
00000010: 1e8e 87be 883f febd c85b 8fbd cb55 90bb
00000020: eb76 cbbe 6bd7 203f 299d 81be 0177 c5bd
00000030: 3c90 a9be ab8f 19bd c413 1abe a275 083d
00000040: e1cf 6ebe 7174 aa3d 1205 9dbe 03dc 46bd
00000050: 0601 b53d 1682 f2bd a124 11bd 2091 04be
00000060: e204 b3bd b855 8dbe f06b a4be ef53 97bd
00000070: 429f 07be d5b2 9dbd dfc4 b0bd fa81 95be
00000080: 2014 b23f 6bbc fc3e 76f5 3abe a85c 71bc
00000090: 708f ddbe 53e0 19be 3663 6ebc 6de4 24be
000000a0: 3667 08bc 4ed7 19be 6944 76bd cc03 a2bd
000000b0: d42f dcbe 6fc7 03bd ba79 13be 11ab 3dbe
000000c0: c2ff 25be e4cf e2bc 18ff 15be 42bd 8fbf
000000d0: c70f 39bd f10e 803c c267 88bd db24 abbd
000000e0: b2d8 78be ac7d 38bd a458 f8bd ebfe f5be
000000f0: cb95 663f bb72 10bd ff7f 1abe 6c31 27bf
00000100: 6ebb 903c bf0c 5fbd fc58 dcbd 0785 21bd
00000110: fcc4 7bbe 866c 62bf 9170 89be 5055 14be
00000120: be50 79be 5930 b8bd 2b9a 04be 9cf9 29be
00000130: 496a cdbd f0cd 5dbd 80f9 24be 0e9e 32be
00000140: b98c ac3c 13bb 6c3c 1019 01be 1e8c 413c
00000150: ff18 b5bc e937 6e3d 09d1 f1bc 69fc 78bf
00000160: abbd f83e dbe4 bdbd a235 68be e89d 453d
00000170: 811a 86be 2341 b6be bd72 3abd 4d92 203f
00000180: 6e05 e1bc 485f 17be a3eb 2dbc ff7c a73e
00000190: 9436 21bf a4da 533c 6a7b 92be 93e0 a6bd
000001a0: a70d bcbe c894 2cbf f3d4 c3bd a0ba 463d
000001b0: 053f b2bf b1a1 8abd 9321 53bd 04ee 9abe
000001c0: 83bc 87bd 3c32 25bd 8647 0d3b f377 abbf
000001d0: f8ab 81bd df0d 63bf b8de 02be fcc3 a2bd
000001e0: 42f0 c1be 4f65 a33f 6fbb 2bbf 19c1 c6be
000001f0: efed ffbb a32b b0be aa73 0abe 4655 4fbb

attention_pooling.attention.0.weight f4 [128, 128]
-0.062072184 -0.043977622 -0.43814453 0.17001227 0.11390463 -0.036154553 0.036834586 -0.108397864
0.0048204507 0.061334193 0.051501047 -0.06012373 0.4024228 0.028949028 -0.10036481 -0.041080352
0.25145426 -0.7578475 -0.22981575 0.027035303 -0.1782951 0.023304772 0.025064573 0.045816947
-0.06404591 0.11091737 -0.0005714476 0.070720814 -0.024385639 -0.20852292 0.02123494 -0.056016404
-0.7990597 0.4119485 0.0878897 0.079108074 -0.030190341 -0.07947481 0.052959707 0.010348888
0.036578123 0.084688656 -0.056358866 0.13421552 -0.026237711 0.09927432 -1.1270128 -0.07013512
0.04780155 -0.03571166 -0.066219695 -0.91957074 0.085872896 0.054779463 0.06640452 -0.011436261
-0.015081238 0.06754699 0.002069303 -0.21758191 -0.31855556 0.011200333 0.07576259 0.0064736404
0.055415303 0.053753987 -0.03243426 -0.054572213 -0.24363516 -0.1544367 0.1888718 -0.08985797
0.045948517 0.08528112 -0.028963521 -0.31581056 -0.029104002 0.093922585 -0.03798274 0.074755885
-0.07990185 -0.06995052 -0.13213849 0.073181115 0.071771294 -0.029031277 0.082075395 -0.5562763
-0.122548535 0.01857054 0.27963713 0.0611758 -0.34035194 0.5581344 0.008467241 -1.114381
0.28066465 0.0036533347 0.050566662 0.07699143 0.17700918 0.023321528 0.31437427 0.05831601
0.012654936 -0.17018595 -0.044328682 -0.038506422 -0.18845224 -0.061161242 -0.0009977925 0.35154942
-0.0071877656 -0.07416903 -0.002445687 0.0026709426 -0.07476371 0.13093016 -0.023439433 0.06793024
-0.1043081 -0.3822037 -0.041365735 -0.07560349 -0.031019315 0.39543736 0.060126826 -0.08009165
0.14847453 -0.055891376 -0.16013117 0.004075368 0.053927194 -0.03875136 -0.00033925846 0.17259108
-0.046395704 -0.16562617 0.14582737 0.027226146 0.059523262 -0.08204841 -0.02975965 -0.06144844
-0.14632669 -0.763589 -2.195451 0.046667688 -0.045823064 -0.06269637 -0.118516535 0.18516833
0.041768283 0.06267106 -0.027030922 0.037877534 -0.0143252 0.052347757 0.016741492 0.03191407
0.051817168 -0.65867996 -0.036320586 0.022255221 -0.03784114 -0.14893982 -0.014637976 -0.068430476
0.01553633 0.0039821574 0.027300036 -0.07555593 -0.12776911 -0.002284992 -0.11518866 -0.056782376
-0.08451513 -0.07292357 -0.34826225 0.072408214 0.0038261574 0.011358749 -0.07687437 0.03023573
0.094788775 0.022747431 0.013194134 0.040165816 -1.7598728 -0.06400066 -0.047857296 -0.039951928
-0.010818689 -0.06833392 0.10531529 0.0058382004 -0.022262855 -0.5615098 -0.14679901 0.050961312
-0.06593947 -0.0503439 0.028581336 -0.113195196 -0.015427078 -0.016478794 -0.0221899 -0.13925275
0.098195516 -0.06853727 0.017051486 0.026937775 0.07361122 -0.04244302 0.012903067 -0.81548125
-0.06285288 0.054527316 -0.07665947 -0.059560016 0.21335728 -0.08229382 -0.13433494 -0.08265175
0.06831175 0.028598389 -0.031671435 -0.1385291 -0.26796487 0.073667064 -0.0527492 0.02394111
-0.13381796 -0.19922218 -0.07297155 0.05833748 -0.054607224 0.047259085 0.032256037 0.036187932
-0.00653206 -0.0021719455 0.060936596 -0.22157367 0.018606886 -0.618882 -0.033218123 -0.057815652
-0.013576565 0.0071535683 -0.082404405 0.044801686 0.005421259 -0.11028662 -0.026074385 0.068300396
00000000: 673f 7ebd e121 34bd 7b54 e0be b217 2e3e
00000010: d546 e93d cc16 14bd dddf 163d b3ff ddbd
00000020: dff4 9d3b 9039 7b3d c3f2 523d 4d44 76bd
00000030: 5c0a ce3e 8326 ed3c 118c cdbd df43 28bd
00000040: 9dbe 803e 4b02 42bf d254 6bbe 2479 dd3c
00000050: fe92 36be a6e9 be3c 3854 cd3c 8daa 3b3d
00000060: 812a 83bd a528 e33d 33cd 15ba 13d6 903d
00000070: 64c4 c7bc 0887 55be e6f4 ad3c 7571 65bd
00000080: 2d8f 4cbf eaea d23e 84ff b33d 6a03 a23d
00000090: bc51 f7bc b0c3 a2bd 47ec 583d 628e 293c
000000a0: f1d2 153d 3f71 ad3d 8ed8 66bd cb6f 093e
000000b0: 78f0 d6bc 5650 cb3d f541 90bf 00a3 8fbd
000000c0: 8fcb 433d 6446 12bd 319e 87bd fd68 6bbf
000000d0: 21de af3d 6e60 603d 18ff 873d 285f 3bbc
000000e0: 4c17 77bc 1456 8a3d 259d 073b cbcd 5ebe
000000f0: b719 a3be 9a81 373c 6b29 9b3d d520 d43b
00000100: 28fb 623d 242d 5c3d c9d9 04bd 1d87 5fbd
00000110: 7f7b 79be a724 1ebe 9c67 413e 7507 b8bd
00000120: 8334 3c3d dea7 ae3d e844 edbc ecb1 a1be
00000130: 846b eebc 7c5a c03d ca93 1bbd 9d19 993d
00000140: 95a3 a3bd 3842 8fbd 504f 07be fbdf 953d
00000150: d4fc 923d 00d3 edbc 2517 a83d 2068 0ebf
00000160: bafa fabd 3f21 983c 992c 8f3e 7a93 7a3d
00000170: 9c42 aebe e5e1 0e3f 2fba 0a3c 09a4 8ebf
00000180: 47b3 8f3e c96c 6f3b fd1e 4f3d afad 9d3d
00000190: e541 353e ca0c bf3c aaf5 a03e c5dc 6e3d
000001a0: a656 4f3c 3a45 2ebe fe91 35bd e9b8 1dbd
000001b0: a0f9 40be 3684 7abd 5cc8 82ba 49fe b33e
000001c0: 5987 ebbb efe5 97bd d247 20bb fb0a 2f3b
000001d0: b71d 99bd 8e12 063e 0e04 c0bc 021f 8b3d
000001e0: 7c9f d5bd 34b0 c3be 1e6f 29bd 01d6 9abd
000001f0: 381c febc c476 ca3e 8c47 763d 1707 a4bd
00000200: b509 183e 5bee 64bd 6df9 23be aa8a 853b
00000210: c3e2 5c3d bfb9 1ebd 80de b1b9 b7bb 303e
00000220: 6c09 3ebd e899 29be c553 153e 5e09 df3c
00000230: aace 733d ff08 a8bd 82ca f3bc 5cb1 7bbd
00000240: aad6 15be 927a 43bf 4582 0cc0 9e26 3f3d
00000250: f7b0 3bbd f466 80bd ccb8 f2bd c49c 3d3e
00000260: 3815 2b3d af59 803d f46f ddbc 7925 1b3d
00000270: 3eb4 6abc 9a6a 563d 7425 893c 54b8 023d
00000280: 3d3e 543d 409f 28bf e5c4 14bd 9550 b63c
00000290: 50ff 1abd ae83 18be 1fd4 6fbc 4725 8cbd
000002a0: 178c 7e3c c27c 823b 53a4 df3c 11bd 9abd
000002b0: e8d5 02be cebf 15bb 08e8 ebbd a394 68bd
000002c0: 4516 adbd f458 95bd 6e4f b2be c24a 943d
000002d0: 45c0 7a3b 0c1a 3a3c 4f70 9dbd ecb0 f73c
000002e0: 9e20 c23d d258 ba3c 362c 583c e984 243d
000002f0: 8343 e1bf c712 83bd 0306 44bd a2a4 23bd
00000300: df40 31bc a7f2 8bbd 8baf d73d 604e bf3b
00000310: 9760 b6bc 1bbf 0fbf 7b52 16be cfbc 503d
00000320: 460b 87bd 6835 4ebd 6823 ea3c e2d2 e7bd
00000330: dbc1 7cbc 89fe 86bc 98c7 b5bc 4698 0ebe
00000340: bb1a c93d 455d 8cbd 8faf 8b3c 9cac dc3c
00000350: 7bc1 963d bbd8 2dbd 6367 533c 61c3 50bf
00000360: 03b9 80bd 0958 5f3d a4ff 9cbd 34f5 73bd
00000370: 557a 5a3e aa89 a8bd 198f 09be 5245 a9bd
00000380: 08e7 8b3d 2b47 ea3c e8b9 01bd 93da 0dbe
00000390: b132 89be c2de 963d 8c0f 58bd 2620 c43c
000003a0: 9307 09be e600 4cbe 1c72 95bd 48f3 6e3d
000003b0: d3ab 5fbd be92 413d e81e 043d cc39 143d
000003c0: e40a d6bb 3357 0ebb a798 793d 35e4 62be
000003d0: 786d 983c 0d6f 1ebf ba0f 08bd 1bd0 6cbd
000003e0: 3e70 5ebc 7b68 ea3b a4c3 a8bd f981 373d
000003f0: d1a4 b13b f4dd e1bd f399 d5bc 14e1 8b3d

attention_pooling.attention.0.bias f4 [128]
0.47428286 0.22402264 -0.036328033 -0.17387708 0.38923874 -0.54260707 0.78629756 -1.593157
0.9671677 -0.142792 -0.14791873 -0.39005917 -0.33779737 0.9983841 -0.4844859 -0.58537525
0.47639033 0.04505049 1.5120753 0.26054066 -0.7896195 0.054049447 0.35635757 -0.7834822
0.23031703 -0.4947992 0.54565454 0.35876665 0.7027071 0.6417121 -0.02726984 -0.7389048
0.91577095 -0.28847563 -0.35589528 0.22418447 -0.06391092 -0.52492726 -0.4030355 -0.5504454
0.43766528 -0.19409499 -1.1051214 0.54194087 -0.79372287 1.2578943 1.0591732 0.7053958
1.4165882 1.0303675 0.3790103 0.47686917 0.5344206 -0.7544419 -0.26239374 0.5816446
0.5178636 -0.6076435 -0.18589085 0.17824657 0.35029176 0.5606701 -0.7208769 -0.1288273
0.11714923 0.5169608 -0.03525508 0.21780866 -0.16654575 -0.82436717 -0.041064627 0.76700187
0.2215496 0.66965115 0.31854177 0.20848083 1.2660493 0.08851431 -0.98506624 0.6536228
-0.16713847 -0.043818414 -0.39984128 -0.5925173 0.18382101 -0.13489608 -0.9265609 0.6749418
0.4223956 0.91005796 -0.95727795 -0.48190573 -0.13110587 0.5733653 -0.22313173 0.7764073
0.69293624 -0.47271928 -0.9886822 0.90636855 -0.68951106 -0.35471305 0.25028974 0.0821565
0.2575652 0.77149844 0.3959073 0.09540784 0.41438824 0.17921518 -0.501975 -0.2593983
-0.36895543 0.29838058 -0.28479925 0.40255088 -1.240652 -0.42885205 -0.2775939 0.59671736
0.123281196 0.5146178 0.66973144 -0.1999643 0.045065057 -0.44215715 -0.76719 0.19153266
00000000: 34d5 f23e 3166 653e b4cc 14bd d50c 32be
00000010: 4d4a c73e 4ce8 0abf cc4a 493f 92ec cbbf
00000020: 4d98 773f 1138 12be 0278 17be d6b5 c7be
00000030: c7f3 acbe 1a96 7f3f 890e f8be 27db 15bf
00000040: 6fe9 f33e dd86 383d af8b c13f 9665 853e
00000050: 8124 4abf f462 5d3d 8074 b63e 4a92 48bf
00000060: 3ad8 6b3e 5256 fdbe 04b0 0b3f 43b0 b73e
00000070: 9de4 333f 3f47 243f 0065 dfbc dd28 3dbf
00000080: f76f 6a3f 14b3 93be e837 b6be 9d90 653e
00000090: bae3 82bd a261 06bf ab5a cebe fde9 0cbf
000000a0: aa15 e03e d6c0 46be 9e74 8dbf a3bc 0a3f
000000b0: 6c31 4bbf ae02 a13f fd92 873f d294 343f
000000c0: c352 b53f 15e3 833f a30d c23e 3228 f43e
000000d0: cacf 083f 1b23 41bf 7958 86be a9e6 143f
000000e0: b592 043f 868e 1bbf 2c5a 3ebe 4586 363e
000000f0: 7159 b33e 1388 0f3f 638b 38bf 4eeb 03be
00000100: efeb ef3d 8b57 043f a167 10bd 3c09 5f3e
00000110: f88a 2abe ba09 53bf 6233 28bd 3c5a 443f
00000120: e6dd 623e 426e 2b3f e817 a33e 007c 553e
00000130: e70d a23f fe46 b53d 4d2d 7cbf d353 273f
00000140: 5926 2bbe f07a 33bd ffb7 ccbe 37af 17bf
00000150: 933b 3c3e 3322 0abe 1833 6dbf fcc8 2c3f
00000160: 3c44 d83e 8ff9 683f 2b10 75bf 59bc f6be
00000170: 9e40 06be 11c8 123f a57c 64be a1c2 463f
00000180: 4564 313f 4308 f2be 471a 7dbf c507 683f
00000190: cc83 30bf f39c b5be fa25 803e ab41 a83d
000001a0: 96df 833e ec80 453f 5db4 ca3e 3065 c33d
000001b0: b22a d43e 2f84 373e 6f81 00bf dbcf 84be
000001c0: bae7 bcbe 57c5 983e 35d1 91be 261b ce3e
000001d0: afcd 9ebf 7f92 dbbe ca20 8ebe 78c2 183f
000001e0: da7a fc3d febd 033f 8573 2b3f 71c3 4cbe
000001f0: 2396 383d 6c62 e2be 9066 44bf 2321 443e

attention_pooling.attention.2.weight f4 [1, 128]
-0.568288 0.37705898 0.2950769 -0.3838897 0.38468647 -0.7495756 0.51624775 -0.46217442
0.06959477 -0.6836949 -0.5903487 -0.55288345 0.75369966 0.7845304 -0.4687759 -0.54648143
0.35524237 -0.5062963 0.44291577 -0.053743657 -0.3558613 -0.24466883 -0.38889077 -0.5929605
-0.017701404 -0.8287545 0.65561837 0.5131597 0.6240561 0.8113578 -0.9939839 -0.7324517
0.39168426 0.78727853 -0.34306523 -0.57416576 0.22759339 -0.5054756 0.6131423 -0.49142495
-0.49580437 -0.6048577 -0.36995772 0.6355269 -0.53070915 0.24192889 0.37688515 0.8094823
0.3462462 0.1168383 -0.65047175 0.15688498 0.62199193 -0.79555064 0.5208627 0.31515577
0.5236257 -0.62168515 0.54583 0.64013875 0.24881992 0.30601582 -0.44197398 -0.24752527
-0.49084035 0.7035256 0.016681287 0.3085773 0.5559668 -0.38889045 0.1729648 0.32225072
-0.8687905 0.6571927 0.2911078 0.51562464 0.6023632 -0.73927623 -0.3310992 0.74417764
0.4979951 -0.8928311 -0.56344855 -0.7183146 -0.27052277 -0.5348926 -0.26942587 0.084974
-0.84120816 0.22247769 -0.36226884 -0.30003348 0.8430263 0.39290944 0.550247 0.113373354
0.7532128 -0.4552785 -0.3515485 0.19507748 -0.68112636 -0.0023891688 -0.41624543 -0.625902
0.6382473 0.8371737 0.10874436 -0.7887258 -0.6571101 -0.4421044 -0.10913448 -0.13567325
0.4513348 0.056272596 0.62651116 0.19365446 -0.15666884 0.82155913 -0.2959048 0.61668426
-0.7260211 -0.6642418 0.36363056 0.76247495 -0.61692405 -0.431194 -0.7633225 -0.4278528
00000000: 537b 11bf e00d c13e 5214 973e 318d c4be
00000010: a0f5 c43e 30e4 3fbf d028 043f 20a2 ecbe
00000020: b487 8e3d a106 2fbf 1821 17bf c589 0dbf
00000030: 76f2 403f fcd6 483f 6503 f0be 35e6 0bbf
00000040: 54e2 b53e a29c 01bf dbc5 e23e 4f22 5cbd
00000050: 7433 b6be 778a 7abe b11c c7be 42cc 17bf
00000060: 8902 91bc 4129 54bf 9bd6 273f 6f5e 033f
00000070: 24c2 1f3f 25b5 4f3f bb75 7ebf f481 3bbf
00000080: d78a c83e 168b 493f 3fa6 afbe 87fc 12bf
00000090: 3e0e 693e d966 01bf e5f6 1c3f 0d9c fbbe
000000a0: 12da fdbe f4d7 1abf 196b bdbe e4b1 223f
000000b0: 8edc 07bf 35bc 773e 17f7 c03e 3b3a 4f3f
000000c0: 2f47 b13e eb48 ef3d 5185 26bf 75a6 203e
000000d0: dd3a 1f3f 35a9 4bbf 4257 053f 195c a13e
000000e0: 550c 063f c226 1fbf 84bb 0b3f 22e0 233f
000000f0: a6ca 7e3e 1bae 9c3e 6a4a e2be 4477 7dbe
00000100: 6d4f fbbe 411a 343f 32a7 883c d8fd 9d3e
00000110: d753 0e3f a61c c7be af1d 313e 0cfe a43e
00000120: 0e69 5ebf c83d 283f 150c 953e faff 033f
00000130: 7a34 1a3f 3541 3dbf d685 a9be 6d82 3e3f
00000140: 37f9 fe3e 9490 64bf 2a3e 10bf 77e3 37bf
00000150: f681 8abe b9ee 08bf 30f2 89be d906 ae3d
00000160: 6b59 57bf 31d1 633e 4d7b b9be fd9d 99be
00000170: 92d0 573f 6d2b c93e fddc 0c3f 4a30 e83d
00000180: 8ed2 403f 431a e9be 2afe b3be 64c2 473e
00000190: 4c5e 2ebf 9a93 1cbb 1f1e d5be 1d3b 20bf
000001a0: 2d64 233f 0451 563f 5db5 de3d efe9 49bf
000001b0: 5e38 28bf 825b e2be e681 dfbd eeed 0abe
000001c0: 5b15 e73e 187e 663d 0963 203f 5b4d 463e
000001d0: cc6d 20be b351 523f d580 97be 05df 1d3f
000001e0: 85dc 39bf c00b 2abf c92d ba3e 8f31 433f
000001f0: bcee 1dbf 76c5 dcbe 1a69 43bf 860f dbbe

classifier.fc.weight f4 [1, 128]
-0.041365564 -0.116555005 -0.087348215 0.117706075 0.18966445 0.0065772934 0.05714093 0.023860969
-0.112768374 0.08080711 0.08324982 0.0040592323 0.15318067 0.04072165 -0.17369573 -0.014334402
0.04497899 -0.1461989 -0.06287129 -0.008125184 0.07094324 0.04059096 0.03628791 -0.032730084
-0.08213123 -0.080598705 0.02503904 -0.025723038 0.038210828 -0.011003036 0.0070095886 -0.16914663
0.09205274 -0.12939075 0.052768767 -0.02891343 0.24009097 -0.13624582 -0.015002978 -0.017292997
0.045498803 -0.010031089 0.08333268 0.028211717 0.21785238 0.008730217 0.19132084 0.03558559
-0.027933534 0.052137937 -0.12059208 -0.14583334 0.04177595 -0.039912608 -0.008551825 -0.018321365
0.014414912 -0.011029496 -0.0002590254 0.21961544 -0.24706058 -0.0069353543 -0.017024161 0.18448105
0.0020262145 -0.00683379 0.0072239586 0.011453387 -0.083486214 -0.05371372 -0.15559974 -0.011633298
-0.13890089 -0.040716786 0.02115444 0.09239006 -0.051560283 -0.00046986772 0.03126237 -0.05568538
0.064186774 -0.010766878 -0.016494889 0.009860599 -0.01895324 0.020772323 0.037282832 -0.17787337
0.04318857 0.026378594 0.26810414 0.055054825 -0.21191406 0.848702 0.005243892 0.06554425
0.031285208 -0.0044570696 -0.018742174 0.0060786675 -0.087671906 0.022890998 0.19869992 -0.056353156
0.01468058 -0.0014102363 0.041384857 0.049499292 -0.02964812 0.0656773 0.0016328901 0.088817395
-0.020853763 -0.027145589 -0.0060259886 -0.12649342 0.00638736 0.14301895 0.010560718 0.026572108
0.0010241792 0.32024178 -0.012928851 -0.18159878 0.035080012 -0.206241 0.035158698 0.006475179
00000000: f06e 29bd 64b4 eebd 9fe3 b2bd e20f f13d
00000010: 6637 423e 5686 d73b 9c0c 6a3d 1478 c33c
00000020: 1bf3 e6bd 337e a53d e27e aa3d 4f03 853b
00000030: 65db 1c3e bfcb 263d 4bdd 31be d7da 6abc
00000040: e43b 383d 2ab5 15be aac2 80bd 7e1f 05bc
00000050: b04a 913d b542 263d a2a2 143d fb0f 06bd
00000060: 6b34 a8bd ef10 a5bd ac1e cd3c 1fb9 d2bc
00000070: f582 1c3d 1446 34bc b1b0 e53b c634 2dbe
00000080: 2686 bc3d 027f 04be 1024 583d dcdb ecbc
00000090: 68da 753e 0684 0bbe 0dcf 75bc 0baa 8dbc
000000a0: f45c 3a3d 7059 24bc 53aa aa3d 421c e73c
000000b0: b214 5f3e 2f09 0f3c 9ce9 433e 32c2 113d
000000c0: ded4 e4bc 978e 553d fbf8 f6bd 5655 15be
000000d0: 421d 2b3d 677b 23bd f41c 0cbc b016 96bc
000000e0: 862c 6c3c 0fb5 34bc cdcd 87b9 dfe2 603e
000000f0: 73fd 7cbe f841 e3bb 4176 8bbc 9ae8 3c3e
00000100: 3dca 043b fced dfbb f5b6 ec3b fda6 3b3c
00000110: d2fa aabd eb02 5cbd 8a55 1fbe 9799 3ebc
00000120: 093c 0ebe a5c6 26bd 134c ad3c 0037 bd3d
00000130: e030 53bd 9458 f6b9 f90c 003d 5a16 64bd
00000140: 5b74 833d 8f67 30bc 4a20 87bc 5a8e 213c
00000150: d343 9bbc b82a aa3c e2b5 183d 7024 36be
00000160: 7fe6 303d ec17 d83c f244 893e 2b81 613d
00000170: 0000 59be 8944 593f f4d4 ab3b 103c 863d
00000180: eb24 003d 9c0c 92bb 3089 99bc 8f2f c73b
00000190: 548d b3bd e785 bb3c fe77 4b3e 91d2 66bd
000001a0: d186 703c aed7 b8ba 2b83 293d c5bf 4a3d
000001b0: 9de0 f2bc d281 863d b306 d63a e5e5 b53d
000001c0: 83d5 aabc 6d60 debc a875 c5bb 7e87 01be
000001d0: 0f4d d13b 8f73 123e dd06 2d3c c0ad d93c
000001e0: c03d 863a bbf6 a33e 88d3 53bc 08f5 39be
000001f0: 0fb0 0f3d d730 53be 9102 103d bd2d d43b
