weights/model_weights_yune.pth (torch, 142674 bytes, 8 tensors)

instance_encoder.encoder.0.weight f4 [128, 9]
00000000: 60a9 d680 5560 1200 2149 0193 78d3 b401
00000010: c66c 1600 303b 8491 6eea 0a80 ac4f 0b00
00000020: 3fe5 2380 9921 1b00 3c87 15b3 d1a1 00bc
00000030: 84bf 4400 7b83 dcb6 6815 0dbc 0ed7 4a00
00000040: 0cc4 0cb2 1fed eabb d34a 0400 15a9 173a
00000050: 0d55 42bb 90dc 1980 c87d 8339 aa01 99bb
00000060: bf21 3d80 2b78 8cb5 6483 57ba b8b8 b22c
00000070: 7bd3 143c e92e 28bc e6f6 372a 2d98 ce3c
00000080: 31cd 2cbc 6455 5728 d4a5 bbbb 87bd 32ba
00000090: 874a 3e80 f5e6 a1b8 b37c ebbb adf1 0700
000000a0: 4165 30b8 c58e 0fbc 1530 1700 fed8 abb5
000000b0: 5377 1dba 45db 1500 4102 f1b7 9a64 c6bb
000000c0: 0893 2b00 b086 8db9 06f9 16bc 6c0e 1180
000000d0: 6f04 c0b7 607a d9bb 4f46 1f80 a8c4 88bc
000000e0: 7f06 42bc 617b 1c80 b89c bcba fbc3 c3bb
000000f0: 9c7a 1c80 55e9 45bb d2c3 13bc 1375 4080
00000100: 1425 4780 516c 489e c37d 3e00 7de0 1000
00000110: 73d5 9b9d 193a 3e00 6e9d 2c80 6153 870e
00000120: 4e7d 2e80 dfd1 3b80 5ed2 c6a1 4a66 3c80
00000130: 0041 1380 f434 24a2 c930 0500 2d57 3480
00000140: b5da 0397 a1ed 0600 5d16 6bb2 9059 0dbc
00000150: eaa2 1480 5c65 ccb5 41e9 0cbc 8ec3 0280
00000160: d1ef b5b2 4b10 dabb ce9e 0380 bb4a 1236
00000170: 6555 59bb fe05 0680 b316 0a35 e8cb bbbb
00000180: 66a4 4c00 b3e0 45b1 10f8 efba 567e 2f00
00000190: 82eb 19ac 560a 42bc 4a18 1880 9aa7 41b2
000001a0: a326 4dbc 0730 1e00 df5b 0bad d4ab 08bc
000001b0: 2254 0400 6f29 2380 3ea3 a4b7 a02f 3c80
000001c0: b335 3d00 acd7 17b7 f9d6 0280 c8de 0100
000001d0: d696 3bb5 7517 1c00 ac3f 52bc 9887 57bb
000001e0: dcdf 1300 1d35 6dbb 7723 e4ba 5888 3c80
000001f0: 9eff 66bb 74e4 65b9 d268 2280 f584 1000
00000200: 5864 aeb1 7e45 2e80 e6a1 1280 f7a8 71b1
00000210: e2c3 a481 0ad0 1700 702e 77aa e06f 3120
00000220: 4aa0 4822 2b07 dea5 9fe4 3720 b921 10a4
00000230: 9daf cea5 616b 1f20 7d36 ea23 1bae 6fa5
00000240: 082d 1c80 fa6d 41ac e4b8 38bc 0dfc 4480
00000250: 7053 51ac 2b26 3cbc f360 0a80 9760 0da3
00000260: 6ba2 e8bb c44d 18b8 dd45 40bd a30b 81bc
00000270: 7946 beb7 1f61 5e3d bdf7 8eb9 411e 06b7
00000280: 8d5a 9dbc 4e79 7238 e57c 3080 89e0 64b4
00000290: 68a1 f9ba 8d23 2400 81ad 56ba 7f65 18bb
000002a0: 6458 1680 5f5c 32b8 d9dd cfba 1a46 0700
000002b0: bb42 1f80 b908 88a3 5d35 4b80 8cd0 1e80
000002c0: 23d9 42a7 7980 0300 f314 1f80 c072 9d9e
000002d0: 272b 0500 3d11 0280 8c55 aca6 c224 1000
000002e0: c64a 1a80 cbe8 f0a4 4bc9 2a00 2d84 2480
000002f0: 78a3 069e 8ad3 0880 a3e0 4cba 09ff d6bb
00000300: 218c 0800 a6dc 38b9 dd34 1dbb 3c1e 1700
00000310: 38f6 a0b7 9061 61bb 6532 4480 1701 6fab
00000320: bc9a d8bb 084c 1e80 5ba0 81b0 d791 e0bb
00000330: 2842 1480 8948 36a6 5943 b0bb c779 2500
00000340: 5dfe c5bb 90d6 8abc 2c19 2a00 69dd 70ba
00000350: 1956 31bc c637 0680 5edf a3ba 0bb7 10bc
00000360: 841f 2d00 6c28 1280 b726 3ba8 56cf 1280
00000370: 02fa 0780 be06 6ea8 8293 3500 fca8 1400
00000380: b386 5a21 c673 1200 a1f9 4000 5087 a9b8
00000390: 748c 1600 5e8d 1880 23d7 33b7 ca59 0f80
000003a0: ce71 4a00 f27d a5b6 7ecb 2900 8884 1f00
000003b0: f441 81b4 2786 2980 1c8e 4000 0947 e333
000003c0: ece5 2b80 f64b 4400 10e6 8baf 10e0 0200
000003d0: ffba 3680 19f6 5b9f 01e9 4b80 8578 1a80
000003e0: 81df c09f b6b1 1200 314d 4480 cd21 3b93
000003f0: 241c 1180 664c 0700 7b60 36b2 7257 0c00
-1.9713556e-38 1.687596e-39 -1.6318144e-27 6.6425e-38 2.059401e-39 -2.0862405e-28 -1.002452e-39 1.038771e-39
-3.29648e-39 2.491611e-39 -3.481476e-08 -0.00785108 6.313517e-39 -6.5718173e-06 -0.008611061 6.872974e-39
-8.193648e-09 -0.0071693803 3.94184e-40 0.0005785388 -0.0029652745 -2.37501e-39 0.0002507998 -0.004669388
-5.614071e-39 -1.0465786e-06 -0.0008221178 5.079572e-12 0.009083624 -0.0102650905 1.6339325e-13 0.025219047
-0.010546968 1.1953414e-14 -0.0057265554 -0.0006818403 -5.720536e-39 -7.720097e-05 -0.007186496 7.29545e-40
-4.205597e-05 -0.008762066 2.129465e-39 -1.2803646e-06 -0.00060068554 2.007205e-39 -2.8730488e-05 -0.006054473
4.001671e-39 -0.00026993966 -0.009214645 -1.566377e-39 -2.2890248e-05 -0.0066369027 -2.872122e-39 -0.016695336
-0.011842369 -2.615654e-39 -0.0014389968 -0.0059742904 -2.615378e-39 -0.0030198891 -0.009018855 -5.91947e-39
-6.533621e-39 -1.0610311e-20 5.738916e-39 1.549899e-39 -4.124886e-21 5.714642e-39 -4.097237e-39 3.336036e-30
-4.269384e-39 -5.493582e-39 -1.3472686e-18 -5.546824e-39 -1.768192e-39 -2.2254178e-18 4.76678e-40 -4.806719e-39
-4.260443e-25 6.36258e-40 -1.3683885e-08 -0.00862731 -1.895152e-39 -1.5228684e-06 -0.008600534 -2.53823e-40
-2.118023e-08 -0.0066547743 -3.32475e-40 2.1799194e-06 -0.0033162471 -5.53163e-40 5.144204e-07 -0.0057310946
7.038473e-39 -2.8795e-09 -0.0018308181 4.361589e-39 -2.187334e-12 -0.011843285 -2.212765e-39 -1.1272187e-08
-0.012521419 2.772294e-39 -7.921635e-12 -0.008341748 3.97523e-40 -3.229106e-39 -1.9626339e-05 -5.527214e-39
5.621229e-39 -9.050516e-06 -2.60789e-40 1.71754e-40 -6.9882424e-07 2.579809e-39 -0.012832563 -0.0032887217
1.82518e-39 -0.0036194988 -0.0017405589 -5.55904e-39 -0.0035247575 -0.00021924247 -3.16001e-39 1.517064e-39
-5.0754743e-09 -4.249362e-39 -1.711117e-39 -3.516616e-09 -6.0525164e-38 2.186847e-39 -2.1954118e-13 1.50295e-19
2.718991e-18 -3.8515718e-16 1.5576347e-19 -3.1253587e-17 -3.5854304e-16 1.3503353e-19 2.5393408e-17 -2.0788935e-16
-2.587548e-39 -2.7487999e-12 -0.01127455 -6.335233e-39 -2.9747003e-12 -0.011483709 -9.53134e-40 -7.664079e-18
-0.00709944 -3.631205e-05 -0.046941627 -0.01575262 -2.2682581e-05 0.05429184 -0.0002726893 -7.994066e-06
-0.019208217 5.781027e-05 -4.452908e-39 -2.131584e-07 -0.0019045295 3.318831e-39 -0.0008189306 -0.0023253856
-2.05209e-39 -4.2524534e-05 -0.0015858962 6.67996e-40 -2.870839e-39 -1.4748844e-17 -6.906805e-39 -2.829877e-39
-2.7040618e-15 3.21594e-40 -2.854416e-39 -1.6670481e-20 4.74658e-40 -1.89855e-40 -1.1958085e-15 1.482554e-39
-2.414547e-39 -1.04477775e-16 3.929301e-39 -3.353494e-39 -7.1277055e-21 -8.1057e-40 -0.0007815456 -0.0065611643
7.84953e-40 -0.00017629805 -0.0023987808 2.123062e-39 -1.918814e-05 -0.0034390427 -6.262892e-39 -8.491137e-13
-0.0066102426 -2.78234e-39 -9.431561e-10 -0.006853323 -1.860442e-39 -6.324224e-16 -0.005379122 3.441599e-39
-0.0060422854 -0.016948014 3.866121e-39 -0.0009188266 -0.01082375 -5.71021e-40 -0.0012502482 -0.008832703
4.143903e-39 -1.66754e-39 -1.038898e-14 -1.727417e-39 -7.32534e-40 -1.3213116e-14 4.920197e-39 1.89733e-39
7.4039546e-19 1.69457e-39 5.967022e-39 -8.083752e-05 2.070766e-39 -2.254765e-39 -1.0719322e-05 -1.409743e-39
6.836652e-39 -4.932045e-06 3.838255e-39 2.894444e-39 -2.407611e-07 -3.81338e-39 5.928451e-39 1.05834324e-07
-4.031407e-39 6.272063e-39 -2.5447422e-10 2.6405e-40 -5.026198e-39 -4.657862e-20 -6.971248e-39 -2.430957e-39
-8.168492e-20 1.71679e-39 -6.272505e-39 -2.3619383e-27 -1.571298e-39 6.70255e-40 -1.0615731e-08 1.133395e-39

instance_encoder.encoder.0.bias f4 [128]
00000000: 962d 3180 1434 bd07 0161 cfaf d512 95bc
00000010: 304e 6da7 d796 21af 4fdf 02ba 04aa 2980
00000020: cea2 1b80 c931 6394 b516 479b 533b 3700
00000030: d49a 2180 6df5 3eb9 e6c2 1300 3b33 1da3
00000040: af99 0c80 a556 dbbd 8da0 1db7 2481 0480
00000050: 452c 2480 0a17 30b0 4dc8 1680 2ca4 8eb8
00000060: 0756 3c80 5d82 1380 eb77 4580 b282 1d80
00000070: 58d2 4c80 8a49 2080 a18c 193b 99c4 15bb
00000080: 0ed8 3480 33dd 0780 ceae 2880 558c 65b6
00000090: a4aa 40a5 199d e1b8 ffaa 48bd a9db 1a80
000000a0: 2930 2f00 5411 d004 33d8 9cbb f801 9586
000000b0: ff2d 3e80 4d49 51b4 93b8 0100 91a9 d6bb
000000c0: f536 0400 b62e 0c80 81c9 3080 165a c388
000000d0: d24e 6f80 196e 1d80 9f12 1f80 3726 2180
000000e0: 9c8e d1bc 63f2 0abb 2d0c 9daa d891 51ae
000000f0: c1ec 3680 a3e0 1e9c faa9 4ca0 8e59 b9b8
00000100: 7b10 1c80 bb05 1d80 7d07 1d00 f009 2000
00000110: c6f5 2780 46c8 5b02 10b9 1e80 3c4d 4180
00000120: 40d4 1300 3d1d 433a c3c9 36bb 2c37 2e80
00000130: 0734 419a c6b2 ab3d da21 99bd 77ff d5bb
00000140: eef6 94ba 70e4 92bb 8538 1b80 7505 23b8
00000150: c1af ddbc 41b1 2980 f2a6 93bb fe54 4880
00000160: 2be2 57b5 16ec c7b9 bbe3 2b80 e1bb 2380
00000170: ad22 163b 79c2 7aab 8e01 2880 dafa 9a19
00000180: c287 44a9 cee0 46bc a285 0106 2fa7 40bc
00000190: 8d05 64bd d74d 15b4 754e 6eb7 230f 4200
000001a0: c3f1 58ba 1557 13bb 3975 283b 15c7 1f80
000001b0: cb34 3f80 ecb2 1580 2a9f 1980 a670 1d80
000001c0: aa69 2880 13a7 1b80 2aa0 1d80 5511 41b8
000001d0: f98b aa16 74aa 439f c901 0780 d2c8 a93d
000001e0: 733a b5ba 6085 dba6 ec50 fcbb 8329 1d80
000001f0: d116 f0b8 bd1e b1b8 e6b4 9cbc f264 99bb
-4.516292e-39 2.8468168e-34 -3.7722006e-10 -0.018197456 -3.2932743e-15 -1.4696454e-10 -0.0004992382 -3.826245e-39
-2.537962e-39 -1.147039e-26 -1.6468231e-22 5.072234e-39 -3.086113e-39 -0.0001821124 1.814791e-39 -8.5218355e-18
-1.157157e-39 -0.107098855 -9.39531e-06 -4.13669e-40 -3.321959e-39 -6.406117e-10 -2.092235e-39 -6.801667e-05
-5.54099e-39 -1.79164e-39 -6.379668e-39 -2.710114e-39 -7.054955e-39 -2.965117e-39 0.0023429769 -0.0022852777
-4.852952e-39 -7.222e-40 -3.736128e-39 -3.4205343e-06 -1.6711161e-16 -0.00010758098 -0.0489912 -2.466522e-39
4.333545e-39 4.891648e-36 -0.004786515 -5.6050463e-35 -5.710301e-39 -1.9491308e-07 1.58048e-40 -0.0065509756
3.87057e-40 -1.118783e-39 -4.48039e-39 -1.1757315e-33 -1.0222015e-38 -2.702725e-39 -2.85358e-39 -3.04428e-39
-0.025580697 -0.0021201603 -2.789725e-13 -4.7650633e-11 -5.044048e-39 -5.256815e-22 -1.7335713e-19 -8.838168e-05
-2.577306e-39 -2.665285e-39 2.665916e-39 2.942301e-39 -3.669751e-39 1.6147055e-37 -2.821453e-39 -5.997014e-39
1.821015e-39 0.00074430165 -0.0027891255 -4.244225e-39 -3.9953492e-23 0.08383708 -0.0747716 -0.006530698
-0.0011365095 -0.0044827983 -2.499834e-39 -3.886731e-05 -0.027061345 -3.828842e-39 -0.0045059854 -6.642645e-39
-8.042286e-07 -0.00038132136 -4.03062e-39 -3.28164e-39 0.0022908852 -8.9087727e-13 -3.673978e-39 1.6024545e-23
-4.3638494e-14 -0.012138559 2.436038e-35 -0.01175861 -0.055669356 -1.3905024e-07 -1.4204173e-05 6.066573e-39
-0.00082757714 -0.0022482325 0.0025704636 -2.918318e-39 -5.804575e-39 -1.99273e-39 -2.352985e-39 -2.70364e-39
-3.711325e-39 -2.539493e-39 -2.720685e-39 -4.6030927e-05 2.7553316e-25 -4.1433852e-20 -6.43489e-40 0.082902566
-0.0013826623 -1.5232329e-15 -0.0077000763 -2.678121e-39 -0.00011448342 -8.445743e-05 -0.019129228 -0.004681223

instance_encoder.encoder.2.weight f4 [128, 128]
00000000: a99e 0300 6799 3c02 6ba1 1b00 d8b1 a2b2
00000010: 2b41 2500 4136 1d00 c9cf c43c c884 3f00
00000020: 91dc 0b00 1c39 1400 ca5d 6482 76f1 0d80
00000030: e08a 3081 87ed fdb6 948c 1e00 4b1f 2480
00000040: c03a 3f82 16c5 b8b8 d8ee 4982 74b0 1600
00000050: 4e8d 0880 b051 b73b 3c44 5381 d9ab 3380
00000060: 00d3 3f80 904a 6402 b6ff 1c80 b93f 2280
00000070: 9a4c ab01 f492 2780 4387 19ba fb0c 1d3d
00000080: 157e 4100 3b15 1502 c7c1 1380 b151 4280
00000090: 7809 0a80 c685 183d 3c92 f2a6 0855 0d80
000000a0: d78e bc82 1454 3480 739c 03b6 82b3 1000
000000b0: cbca 2180 8fa9 0a80 10c1 3200 7c41 f3a1
000000c0: 0047 3582 812e 2180 394c 1b00 9a6e 2500
000000d0: f8ce b000 b040 1580 af41 1e80 f8db 5301
000000e0: f1b1 9a99 c024 3d02 fb52 1480 16ee 2d80
000000f0: e8e2 4b01 bb59 2d00 694e 0880 a2c8 4c80
00000100: f0b7 1b80 eedb 0e80 4cc1 1082 23bf 3000
00000110: e611 1200 bddd 1b80 77a3 0680 8f91 2b00
00000120: c94b 9f81 a42b f2b4 6510 1c80 b360 0080
00000130: 9903 0100 6d67 b0ba 29af 44b3 503e 0b00
00000140: e965 9ab3 3819 0a80 478b d781 af67 0300
00000150: 8441 1e00 a691 8c01 c48e 3bad 4558 1080
00000160: a0e9 6db9 0b1d 00ad 590b 3680 1e3c 1800
00000170: 0636 2eb9 762c 2e00 f95c 3980 929e 2000
00000180: 34a8 1280 d332 1480 1c3f 1600 7673 1392
00000190: 5b52 9ba9 4c84 1c80 d68e f83c 2dd2 2e80
000001a0: b2e5 3080 289a bd3c 64e4 8cb1 9844 3e80
000001b0: c783 0a00 3ccd 9701 90f3 2880 a4f2 2580
000001c0: d19d 0000 a8c5 4980 9f50 ebb6 ad41 0080
000001d0: 22f6 0480 ac5e 2f80 84d5 1b80 8fef 3600
000001e0: aed3 2c33 7623 1c00 e970 2680 687e 0380
000001f0: ea3d 4500 0ca8 3100 fa65 1700 2bdc 4423
00000200: 7b43 3700 01ec 76bb 7c2b 0f00 9ce4 e13d
00000210: 1e7a 0f00 13b9 2280 e2de 1280 150a 3a80
00000220: 6dda 0b00 98b3 90bb 31c2 2900 3df8 47bb
00000230: fbed 4780 0f75 2100 7495 4380 8eb8 6493
00000240: 7d6c 4400 cf79 eabb 6972 3600 5534 0580
00000250: d2bb 0880 c894 0080 a33a 0a00 beb0 d33c
00000260: e05c 0582 535c 4b80 33e4 0a80 5d49 1280
00000270: 7e37 2900 91fd 3300 632b f3bd cdd4 0080
00000280: 2e1b 1f00 d711 3cb5 f1c2 2500 a1cf 0800
00000290: cf0b 3600 a682 0180 6330 e33c fd3f 1980
000002a0: 6a48 1500 36f7 3b80 3978 1780 2f03 4700
000002b0: ab99 1580 5bd5 0300 f054 1f00 1c85 513d
000002c0: dcdd bf02 5562 1200 e925 0400 ddb6 0080
000002d0: 7e2c 0d80 f6c2 0f80 18a5 1d00 82d1 2000
000002e0: 35c2 873d 650a 24bc 9d42 1380 96c1 1700
000002f0: 0807 0680 b83e 0200 9582 3980 113f 3e00
00000300: 6fab 0e80 8239 4a80 b582 a3a5 ea2a cb01
00000310: f54b 1d80 4b5d ba01 084d 1c80 bec0 2b00
00000320: a98e 30b8 5239 67bb ffe1 993c 96af 0180
00000330: d093 0980 76d2 423e ce0a b9bd 487a 6214
00000340: 4ec0 883c b3be 808e 196b 4480 b0fe b181
00000350: 58f5 973c f2ac 0d00 a013 79bd a0c8 1080
00000360: a0b9 2f80 5b04 0900 963c 0700 b565 1680
00000370: 68ed 36bd 7684 1c80 ee42 0080 f8f9 2800
00000380: c2dd 01bb 3993 e6b3 3895 4100 9f12 d13c
00000390: ceff c4b3 e8bb 2a80 208c 0000 7e61 0c00
000003a0: 7979 3f3c 452b 0880 2d2d 1abd 2e81 0d80
000003b0: 79c4 0400 906e 1500 3429 3680 aa58 2180
000003c0: 4fcb 0280 55a2 0c00 f8b1 8081 82ff 0d00
000003d0: 1b89 9189 c066 0280 502b 3880 8a80 c2bb
000003e0: 3214 0100 942d dc81 911b 2abc 0a25 2680
000003f0: d870 0980 11de bc01 b628 9eaf 0aba 2fad
3.32423e-40 1.3856083e-37 2.537464e-39 -1.8940156e-08 3.421291e-39 2.682692e-39 0.024024861 5.833269e-39
1.089315e-39 1.857197e-39 -1.6777711e-37 -1.280481e-39 -3.2425733e-38 -7.5676394e-06 2.805495e-39 -3.317304e-39
-1.4049324e-37 -8.810514e-05 -1.4835693e-37 2.08368e-39 -7.85375e-40 0.0055944547 -3.8803535e-38 -4.745258e-39
-5.861329e-39 1.6772193e-37 -2.663126e-39 -3.145266e-39 6.29254e-38 -3.634301e-39 -0.00058566424 0.038342457
6.014537e-39 1.0952884e-37 -1.814389e-39 -6.090448e-39 -9.21752e-40 0.03723695 -1.683176e-15 -1.224365e-39
-2.7706103e-37 -4.805607e-39 -1.9611587e-06 1.533763e-39 -3.10332e-39 -9.79181e-40 4.661033e-39 -1.6483654e-18
-1.3318156e-37 -3.047254e-39 2.506902e-39 3.43759e-39 1.6237294e-38 -1.951751e-39 -2.778628e-39 3.89124e-38
-1.5995097e-23 1.3896074e-37 -1.866478e-39 -4.218006e-39 3.744801e-38 4.164787e-39 -7.62812e-40 -7.051471e-39
-2.545543e-39 -1.364593e-39 -1.0634923e-37 4.476671e-39 1.65946e-39 -2.559103e-39 -6.09653e-40 4.001143e-39
-5.851612e-38 -4.5107765e-07 -2.577275e-39 -3.4689e-41 9.3126e-41 -0.0013458558 -4.5794113e-08 1.032544e-39
-7.189721e-08 -9.27402e-40 -7.917838e-38 3.12701e-40 2.778567e-39 5.1636873e-38 -1.066142e-11 -1.501033e-39
-0.00022689113 -7.2824064e-12 -4.963188e-39 2.225618e-39 -0.00016614058 4.240382e-39 -5.267976e-39 2.99562e-39
-1.713379e-39 -1.854942e-39 2.04302e-39 -4.652734e-28 -6.897669e-14 -2.618853e-39 0.030341547 -4.29983e-39
-4.490503e-39 0.023144796 -4.1005013e-09 -5.718408e-39 9.65628e-40 5.5763137e-38 -3.760794e-39 -3.484956e-39
5.6614e-41 -6.774897e-39 -7.0129313e-06 -2.356e-41 -4.55638e-40 -4.35023e-39 -2.556153e-39 5.045054e-39
4.0239392e-08 2.584115e-39 -3.530253e-39 -3.20853e-40 6.35886e-39 4.560223e-39 2.148799e-39 1.0671804e-17
5.07516e-39 -0.003767729 1.393132e-39 0.11029932 1.42134e-39 -3.188799e-39 -1.732994e-39 -5.330076e-39
1.088547e-39 -0.0044159405 3.834918e-39 -0.0030512952 -6.605692e-39 3.072564e-39 -6.206592e-39 -2.8868638e-27
6.283732e-39 -0.007155634 5.00016e-39 -4.7795e-40 -8.02061e-40 -5.3373e-41 9.3939e-40 0.025841113
-9.797951e-38 -6.920782e-39 -1.000217e-39 -1.679357e-39 3.785162e-39 4.774573e-39 -0.1187351 -7.6339e-41
2.85665e-39 -7.006142e-07 3.467845e-39 8.09167e-40 4.963353e-39 -1.38703e-40 0.027733034 -2.318842e-39
1.954523e-39 -5.506977e-39 -2.155344e-39 6.521462e-39 -1.983671e-39 3.52044e-40 2.87737e-39 0.051152334
2.8192269e-37 1.688314e-39 3.80942e-40 -6.5599e-41 -1.209822e-39 -1.447471e-39 2.722454e-39 3.013893e-39
0.06628839 -0.010012244 -1.768771e-39 2.181662e-39 -5.53535e-40 2.0617e-40 -5.281467e-39 5.716425e-39
-1.347196e-39 -6.816457e-39 -2.8364563e-16 7.4632e-38 -2.690478e-39 6.845948e-38 -2.599027e-39 4.018069e-39
-4.2094533e-05 -0.0035281968 0.018784521 -1.54824e-40 -8.79545e-40 0.19025597 -0.09035264 1.14342e-26
0.01669326 -3.1738073e-30 -6.283233e-39 -6.538499e-38 0.018549606 1.255903e-39 -0.06080973 -1.541339e-39
-4.382858e-39 8.28082e-40 6.64583e-40 -2.056867e-39 -0.044660002 -2.618912e-39 -2.401e-41 3.763092e-39
-0.0019816016 -1.0736989e-07 6.022837e-39 0.025521575 -9.173492e-08 -3.924499e-39 5.0267e-41 1.137e-39
0.011686676 -7.50206e-40 -0.03764074 -1.240202e-39 4.37823e-40 1.968208e-39 -4.973898e-39 -3.062378e-39
-2.56604e-40 1.16026e-39 -4.7275147e-38 1.28552e-39 -3.5036414e-33 -2.20531e-40 -5.158325e-39 -0.005935733
9.908e-41 -8.088064e-38 -0.010382549 -3.503036e-39 -8.67e-40 6.937894e-38 -2.876896e-10 -9.988907e-12

instance_encoder.encoder.2.bias f4 [128]
00000000: d76a 6f38 b321 693c 68d4 1aba 7cbd f4ad
00000010: f409 8b96 4c84 23b0 94fd 00a4 fd24 14a6
00000020: 40ae eb3c 13e7 b7bb f5a1 09a5 e5b9 813c
00000030: 15a9 053e 415f 3db5 26d3 1bb9 23df 8db9
00000040: e43b 34a5 2d90 053e f877 9dba 6b7f ba3c
00000050: efc9 e2bb b9b9 83ad 2f37 93b0 6eff 97bc
00000060: f549 97b7 2dc3 3f3e f47a e6b9 ecdb 833d
00000070: bc0a 7ebb e63d 13ba 5301 1232 391d 17b9
00000080: b914 98ba 9092 4c3d 9f89 abbb 38a1 2024
00000090: edac 483e 3616 1022 5254 0a9b a4c7 59b4
000000a0: 682d 0e3b 60fa ad9c d058 9419 d257 c43b
000000b0: 950f 79ac bbbb 33ba 46ad 183d dbca 95a1
000000c0: 15ea 2b9c 9e86 2cbd 5c07 1db8 70c9 abb3
000000d0: a58e 9dbc 475b fdaf 083f 2b3d 44b4 93b5
000000e0: a028 73bb eafe 953c 835d ffb1 170d 903c
000000f0: 0997 9da4 9ade 1a3e 7bb8 1b99 f58d b73d
00000100: 7e1b 543c aa88 b43d be2b f73c cbdf 32b9
00000110: 7b8d 9e3c 5261 c0b9 9d2b cab7 3e14 37b4
00000120: 5893 8eb0 3ed2 343c 6370 0e9a e36b 989e
00000130: a5c6 64b8 9c92 cb3c 98ee aabb 38ee 14bd
00000140: 0c5a 31bc faee 153b 5f7b 01b5 4ffd 9d3d
00000150: 7677 3eb2 a357 bca1 5fa5 d8ba b19c d1b1
00000160: 1125 6697 05cf bc3c 0788 6c1c d82e 143c
00000170: 06f8 9d3d 8cf8 8d3c 7018 84ba 4248 87b9
00000180: c144 963c 5420 1798 e060 49a0 90d1 dc3d
00000190: d6df a5b9 6a92 44b4 6bad 4eba 4bab 9dba
000001a0: 5591 83a4 9559 f13c 3b8c c63d f6d1 47bb
000001b0: 5d5b 183e 7394 e1b7 2868 a7ba 99d8 5ab1
000001c0: c4af a1b4 fbe9 53bc 5cc9 93b0 89b5 97a3
000001d0: 7f24 21b0 b904 08b2 c668 4e9e 84e6 359a
000001e0: 7a07 fdb8 999b ddbb f247 b8af 4c2e 90b7
000001f0: db92 8b3c 9962 c31a b9b2 c83d 80b1 483b
5.7081543e-05 0.014229226 -0.0005906285 -2.7823736e-11 -2.2462942e-25 -5.948706e-10 -2.7970365e-17 -5.1397943e-16
0.028769612 -0.005612263 -1.1937729e-16 0.015835712 0.13052781 -7.05466e-07 -0.00014860611 -0.00027059866
-1.5632803e-16 0.1304328 -0.0012013903 0.022765836 -0.006921045 -1.4975453e-11 -1.0711342e-09 -0.018554416
-1.8035042e-05 0.18726797 -0.00043960626 0.06438431 -0.0038763722 -0.00056168286 8.49862e-09 -0.00014411368
-0.0011602856 0.04994446 -0.0052349116 3.4831027e-17 0.19597216 1.9527397e-18 -1.1442338e-22 -2.0282329e-07
0.0021694545 -1.15129e-21 1.5338712e-23 0.0059919143 -3.5393678e-12 -0.0006856282 0.03727462 -1.0150328e-18
-5.68817e-22 -0.04212057 -3.743857e-05 -7.999449e-08 -0.019233057 -4.6085288e-10 0.04180816 -1.1004818e-06
-0.0037103072 0.018310029 -7.432108e-09 0.017584367 -6.834376e-17 0.15123978 -8.050568e-24 0.08962623
0.012946008 0.08815129 0.030172225 -0.00017058772 0.019354573 -0.00036693603 -2.4100586e-05 -1.7050567e-07
-1.0373737e-09 0.011036454 -2.9455697e-23 -1.6138247e-20 -5.4544438e-05 0.024850182 -0.005216431 -0.036359996
-0.0108246915 0.0022878037 -4.8235773e-07 0.077143304 -1.1086618e-08 -1.2762573e-18 -0.0016528777 -6.1005143e-09
-7.4363793e-25 0.023047933 7.826166e-22 0.009044372 0.07713322 0.01733043 -0.0010078084 -0.00025803043
0.018343331 -1.9532614e-24 -1.7057415e-19 0.107821584 -0.00031638023 -1.8307188e-07 -0.00078841177 -0.0012029199
-5.7058396e-17 0.029461661 0.096947156 -0.0030490137 0.14878602 -2.6891217e-05 -0.001277213 -3.1846297e-09
-3.0116473e-07 -0.012934203 -1.0752887e-09 -1.6448336e-17 -5.8623323e-10 -7.917316e-09 -1.0927216e-20 -3.7616132e-23
-0.00012065373 -0.0067629335 -3.3520525e-10 -1.7187696e-05 0.0170378 8.08094e-23 0.09799714 0.0030623376

attention_pooling.attention.0.weight f4 [128, 128]
00000000: f5a0 8825 37ec 9f36 5e03 a736 0c14 bf81
00000010: 65c2 1000 6431 3d00 6e2a 6221 5c7d 2080
00000020: 8299 cd36 329f 3f11 071c 2a80 a081 6bb4
00000030: 9a76 bbb7 849e 8d90 0732 822a 6c8b 4294
00000040: 9cec 1202 4d41 d7b8 dbb1 af11 0c35 69b5
00000050: 8725 2a80 14f6 2500 864b 2400 7153 e0ae
00000060: 9c6f 001a 321f 5338 d308 0c80 0261 93b8
00000070: e4b4 fb1a 764d 1b2f 5ddb db86 973e 1c0c
00000080: 5baa 0500 2604 ef39 1d66 6d15 b704 1782
00000090: 3719 dab8 ec1e 1701 3a93 3680 c9f1 5e2d
000000a0: 75b7 7a38 361a 2300 c015 4b13 89f6 e3b5
000000b0: 0ae4 5480 9f91 069e d626 d0b8 6406 3800
000000c0: 06d8 2200 7199 4a38 e8f0 0a15 8dc4 0f80
000000d0: acaa f135 7d0c 0200 0b1d aa3a e029 4730
000000e0: 50a8 50a0 18f6 dbb4 9b81 3a80 18e7 0735
000000f0: ece9 d600 a562 1d3a 77e2 3e80 a3f7 7f37
00000100: 8c6e 9a36 21a9 08b9 f281 9039 9ef2 3300
00000110: bd01 dab4 7876 ac20 85f7 2900 e6db 8b01
00000120: d772 1500 39a9 01b7 a927 4582 ff82 2f00
00000130: aaeb 3fa3 09da 8ab8 111a 3d36 7ad7 3e38
00000140: 0c44 3134 f209 78aa 80f0 9580 e645 8137
00000150: 6c28 0a0a 70fa 2080 eaf6 9699 dab1 3500
00000160: 2020 0180 3e0e 7936 d652 2a80 9f09 2039
00000170: 1b57 0e3a 0783 5f36 ea68 f69d 9719 cdb1
00000180: 37a8 e036 ded6 1d82 b165 0a82 fd7d fdb8
00000190: 6cb7 d319 c837 5b80 3e12 27a5 6112 0a33
000001a0: e84f ae00 20f4 1838 dc9a 45ba 34ba b0b4
000001b0: 0b14 d7b8 006e 3480 f829 93a6 4037 7200
000001c0: e7da ce18 3a0c 071f 7945 1700 6ca6 1d80
000001d0: c86a 8081 94b3 3900 2bbe 1f80 6e9e 2a80
000001e0: 1b71 2d9c ef09 09b6 56e8 0a80 3f40 b52f
000001f0: 5674 8a34 b991 0202 93a2 193a 2568 3395
00000200: bb7d a3a7 989b 3939 17d0 b0b7 3825 b301
00000210: ae5e 0f80 55eb 3b00 da57 5121 c13e 0d00
00000220: 0e69 83b8 3bf3 ba90 1fd5 2180 9020 3cb7
00000230: 5575 2939 e7ff 8b11 b9f0 d0aa 4091 c113
00000240: cd29 1280 401b 6837 c551 2c12 0ec2 f2b6
00000250: 316d 4580 4c72 9f00 14a4 4000 4e7f ceaf
00000260: 2d6e e91b 26f7 af39 76ed 3100 7747 5138
00000270: 88c1 639c 944a 612f 7d3d 1907 06f3 e40d
00000280: 852d 2500 769d c439 c650 c316 c853 0501
00000290: 67ac 8fb9 9406 f500 3268 0800 c0f0 65ab
000002a0: 5d2d da38 0457 3100 c67a a195 3c65 06b6
000002b0: 7989 0e81 fe7d 591e 7954 3c38 8810 4700
000002c0: 95f3 1e00 799c fd38 c2d0 a595 899e 4b80
000002d0: 1033 b3b7 0b8c 3400 bf9c 833a b0c6 8c31
000002e0: 40aa 1421 a042 cd35 7a00 1700 98dd 8ab7
000002f0: b8a5 be80 d32c e439 494f 0100 89de 4838
00000300: d1f7 cab7 759a ae38 5faf 053a c478 2a00
00000310: cac5 3036 c62c 30a0 8c42 2400 6cd0 4602
00000320: 242c 2900 a6b9 44b8 d7cd 2502 0549 4480
00000330: 2d26 b923 e330 a137 4522 c1b7 9f60 eb38
00000340: 8d55 f3b5 8dce d1aa 1848 a080 19f8 c138
00000350: 8a05 8a8a 3940 1880 c0cf 8518 06ab 1d80
00000360: 5c2d a901 4b4e 03b8 ccf8 1480 8c11 2f39
00000370: edee b639 072d 8238 ed16 331e 8663 4933
00000380: ff96 beb7 c02c 5901 1c55 7501 01cf 0238
00000390: 1233 3e9a d465 ad80 7b13 9428 b21f 1eb4
000003a0: 589d 5381 8df7 cb38 1cd3 1bb7 bee6 18b6
000003b0: 446f f938 de99 a300 c4a4 51a9 2059 1e80
000003c0: d66f c499 38ba c89e 6287 2d80 58b7 3500
000003d0: 00b3 a580 bc05 2780 748c 1a80 cc28 2d00
000003e0: 301b b71b f483 cfb5 f321 0c80 b780 9430
000003f0: 6643 9cb4 cf78 3d82 93e4 aa39 8c07 d396
2.3701308e-16 4.7660683e-06 4.97738e-06 -7.0191085e-38 1.539104e-39 5.619683e-39 7.6627934e-19 -2.983706e-39
6.1273468e-06 1.5116299e-28 -3.867145e-39 -2.1933238e-07 -2.2347365e-05 -5.5858926e-29 2.3127352e-13 -9.821993e-27
1.079429e-37 -0.00010264162 2.7719744e-28 -8.687646e-07 -3.870553e-39 3.48619e-39 3.33317e-39 -1.0201163e-10
2.6559937e-23 5.0335373e-05 -1.105191e-39 -7.027575e-05 1.0410341e-22 1.4124688e-10 -8.270097e-35 1.2036638e-31
5.2029e-40 0.00045588723 4.7942322e-26 -1.1095081e-37 -0.00010399747 2.7756505e-38 -5.011932e-39 1.2672926e-11
5.9775502e-05 3.223645e-39 2.5632926e-27 -1.6984569e-06 -7.795987e-39 -7.124015e-21 -9.925447e-05 5.14508e-39
3.199901e-39 4.8303456e-05 2.805892e-26 -1.448042e-39 1.8005571e-06 1.88151e-40 0.0012978626 7.2455286e-10
-1.7673975e-19 -4.0970986e-07 -5.372952e-39 5.0627705e-07 1.9736712e-38 0.0006003774 -5.775041e-39 1.5256842e-05
4.602427e-06 -0.00013032976 0.00027562637 4.770645e-39 -4.060693e-07 2.921633e-19 3.854049e-39 5.1376075e-38
1.969742e-39 -7.728399e-06 -1.4484656e-37 4.363261e-39 -1.04040346e-17 -6.620965e-05 2.8178367e-06 4.550021e-05
1.6509165e-07 -2.2030275e-13 -1.3769764e-38 1.5410547e-05 6.652061e-33 -3.028576e-39 -1.5609364e-23 4.931082e-39
-1.0336e-40 3.7112181e-06 -3.886807e-39 0.00015262373 0.000542985 3.3305857e-06 -6.5224136e-21 -5.9691945e-09
6.695303e-06 -1.1596202e-37 -1.0167823e-37 -0.00012087447 2.1890972e-23 -8.37704e-39 -1.4491122e-16 3.2147344e-08
1.6008041e-38 3.6466983e-05 -0.00075380295 -3.2918035e-07 -0.00010255732 -4.814906e-39 -1.021155e-15 1.0489067e-38
5.3470787e-24 2.8597476e-20 2.137139e-39 -2.72293e-39 -4.7173e-38 5.299044e-39 -2.91512e-39 -3.913925e-39
-5.7387084e-22 -2.0420373e-06 -1.001701e-39 3.2969358e-10 2.578915e-07 9.592712e-38 0.0005860712 -3.6230918e-26
-4.5377906e-15 0.00017700938 -2.1077734e-05 6.580762e-38 -1.411497e-39 5.502715e-39 7.0928225e-19 1.216373e-39
-6.266135e-05 -7.373882e-29 -3.107025e-39 -1.1213255e-05 0.00016160806 2.2088045e-28 -3.7115257e-13 4.8863277e-27
-1.668034e-39 1.3834622e-05 5.437442e-28 -7.234753e-06 -6.37582e-39 1.4642846e-38 5.936332e-39 -3.7561637e-10
3.8617816e-22 0.0003356274 4.585124e-39 4.989604e-05 -7.5358133e-22 2.0490126e-10 1.152851e-34 1.4110091e-30
3.414243e-39 0.0003750135 3.1554924e-25 2.4488352e-38 -0.00027403535 2.2502056e-38 7.72062e-40 -8.169125e-13
0.000104034996 4.531155e-39 -6.5221084e-26 -2.0026482e-06 -2.6179913e-38 1.1513939e-20 4.4901364e-05 6.52625e-39
2.842446e-39 0.000120931254 -6.697233e-26 -6.944534e-39 -2.136224e-05 4.825684e-39 0.0010041221 4.0971244e-09
5.0369674e-19 1.5293081e-06 2.112387e-39 -1.655407e-05 -1.7508193e-38 0.00043520945 1.20278e-40 4.7890968e-05
-2.4195675e-05 8.3257364e-05 0.00050996797 3.900413e-39 2.6341172e-06 -1.4922594e-19 3.32995e-39 1.4606557e-37
3.78109e-39 -4.690294e-05 1.2181359e-37 -6.271008e-39 2.0073908e-17 1.921546e-05 -2.302335e-05 0.0001122367
-1.8129809e-06 -3.726918e-13 -1.4719542e-38 9.249169e-05 -1.3291e-32 -2.22709e-39 3.458947e-24 -2.724581e-39
6.2145883e-38 -3.130575e-05 -1.925961e-39 0.00016695837 0.0003489176 6.20727e-05 9.480922e-21 4.6889475e-08
-2.2720078e-05 3.9888712e-38 4.5060456e-38 3.1187203e-05 -3.9332333e-23 -1.592407e-38 1.6439749e-14 -1.4726427e-07
-3.8867468e-38 9.725904e-05 -9.287873e-06 -2.2784075e-06 0.0001189397 1.5024383e-38 -4.6550234e-14 -2.787037e-39
-2.0311095e-23 -2.1252842e-20 -4.181164e-39 4.933053e-39 -1.521707e-38 -3.583641e-39 -2.438108e-39 4.147232e-39
3.029238e-22 -1.5461105e-06 -1.114205e-39 1.0805e-09 -2.9106303e-07 -1.3920197e-37 0.00032595228 -3.4093651e-25

attention_pooling.attention.0.bias f4 [128]
00000000: 382d 1235 5cbf f1b0 1cf0 35bb 2443 0c34
00000010: 8f11 24b6 9e2f 9135 c124 c2b6 0ac2 65b2
00000020: 5d8b c137 99df 0c3b f708 5839 1b65 feb3
00000030: c322 4c3b 30ca 97b6 0cbd 2f3a db42 38b5
00000040: d982 09ba 50fe 5db8 c763 33b5 7a4c 94b6
00000050: 0574 47bb 2e09 443b f1ba 29b4 0a63 1a36
00000060: b7f0 aab6 a913 4535 d929 80b3 6a2f 9634
00000070: b53b 0338 13c0 4bbb 7ba6 2c3b 7c59 063a
00000080: 9806 34bb 047c 3bb8 8805 cf36 9a6e 353b
00000090: e17f 8a36 d7e2 9b38 6723 0d36 c620 2c3a
000000a0: c796 29ba 0232 ca3a 99a5 a336 13fb 9436
000000b0: a907 86ba dc6e bc39 d02c 36b2 2400 0e3b
000000c0: e0ef d6b3 83ba efb5 f616 0ab4 b08e 15b6
000000d0: a817 7738 f4e3 23b2 dab2 d2b3 141b dd36
000000e0: 2899 cab4 1b94 65b4 fcdd eab6 37e1 f734
000000f0: 84a0 d9b6 1f4d a3b2 222f 1136 e634 ffb5
00000100: 5763 aa31 ec46 06b5 a252 b5b6 c240 ae38
00000110: 4c79 adb5 2a0c 433b 1c84 0ab6 aba7 12b6
00000120: 462e 583b 5ddc bab5 42ab 9bb5 f86f 65b8
00000130: daa7 8db6 6a1c 82b5 0e1e 5c30 afa4 2eba
00000140: 23a1 a236 c735 16b2 59ce 11b7 5b2f 93b4
00000150: bed2 9db1 c2f0 50b2 e5e5 58b5 009d e236
00000160: 52ed 18ba f864 b7b4 284b eeb6 eda7 4ebb
00000170: cd6c 96b4 4edc 3db9 865d 1cbb a0f8 323a
00000180: fbf1 d1b6 e726 47ba 6e5d 3fb5 76b2 8e35
00000190: 335b 40bb d293 cf39 79a4 6934 c5a3 02b5
000001a0: c08d 323b b253 42b6 db52 57b6 9d95 af36
000001b0: ee25 503b 407f da34 31b1 04b6 9c66 dcb2
000001c0: 07ac 003b 1800 9837 b1ca 73b8 1722 cb36
000001d0: 1978 1db9 340a a3b5 bd3d a835 34f5 8fba
000001e0: de8a c9ba 6f1f abb4 fadb 9a34 8c52 3a3b
000001f0: d2ad 25bb fc55 19b5 bdec 0d3b 7ee1 cc34
5.445504e-07 -1.7589445e-09 -0.0027761525 1.3062942e-07 -2.4448125e-06 1.08172e-06 -5.7859293e-06 -1.3373674e-08
2.3072289e-05 0.002149558 0.00020602705 -1.1846188e-07 0.003114865 -4.5236884e-06 0.00067038904 -6.864263e-07
-0.0005245633 -5.2927353e-05 -6.682789e-07 -4.4196468e-06 -0.0030434143 0.0029912698 -1.580736e-07 2.3005437e-06
-5.0944177e-06 7.341683e-07 -5.9680765e-08 2.7974176e-07 3.128844e-05 -0.0031089827 0.0026344347 0.00051250285
-0.002746975 -4.4699773e-05 6.1697247e-06 0.0027684332 4.1276076e-06 7.433228e-05 2.1031244e-06 0.0006566163
-0.0006469306 0.001542628 4.8770567e-06 4.4399726e-06 -0.0010225672 0.0003594075 -1.06039835e-08 0.0021667564
-1.00087846e-07 -1.786117e-06 -1.2860605e-07 -2.2285785e-06 5.891142e-05 -9.539679e-09 -9.81142e-08 6.5894656e-06
-3.7736868e-07 -2.1381167e-07 -6.999586e-06 4.61712e-07 -6.4857904e-06 -1.9010768e-08 2.1634119e-06 -1.9014376e-06
4.958945e-09 -5.0022095e-07 -5.40384e-06 8.3090286e-05 -1.2924806e-06 0.002976189 -2.06405e-06 -2.185329e-06
0.0032986565 -1.3922214e-06 -1.1598243e-06 -5.4702134e-05 -4.221668e-06 -9.694024e-07 8.0078244e-10 -0.0006662113
4.846735e-06 -8.743377e-09 -8.690718e-06 -2.741534e-07 -4.59326e-09 -1.21619355e-08 -8.080081e-07 6.753602e-06
-0.00058337033 -3.415987e-07 -7.101702e-06 -0.0031533197 -2.801884e-07 -0.00018106514 -0.0023859455 0.0006827209
-6.2568556e-06 -0.00075970445 -7.1289e-07 1.0631763e-06 -0.0029351234 0.0003959225 2.1759651e-07 -4.866709e-07
0.0027245134 -2.895697e-06 -3.2085725e-06 5.2328237e-06 0.003176089 4.069825e-07 -1.9772672e-06 -2.5658032e-08
0.0019633786 1.8119856e-05 -5.8124486e-05 6.05384e-06 -0.00015017427 -1.2147416e-06 1.2534944e-06 -0.001098311
-0.0015376469 -3.1874103e-07 2.884479e-07 0.002843055 -0.0025280607 -5.7122065e-07 0.0021656 3.8162028e-07

attention_pooling.attention.2.weight f4 [1, 128]
00000000: ea02 1d39 35d2 053a 9d0f babc fc05 21ba
00000010: 3c0f deb9 090d 9439 7dd4 233b 95fa d239
00000020: a868 18bb 7ab0 823c d9b5 5c39 0a3d 733a
00000030: cc46 e73c ddc0 493b cac8 aa3b 3985 8bb9
00000040: 8a11 77bb 1772 093b 3fb8 e03a 87ec 73ba
00000050: c0ff dfbc 27d1 d43c 4abd c839 96f5 aab9
00000060: 915b 113b 9371 9639 c447 0a3a 3ace 77ba
00000070: e1c9 18bb b29e d9bc c836 ab3c a6af 683b
00000080: 3802 b4bc 4223 0f3b 0676 de3a 9812 bb3c
00000090: 7cde 143b 763f beba 1702 cf39 2b9a a43b
000000a0: c187 19bc b65a 463c 2d1c 103b e977 32ba
000000b0: 3908 01bc d4bd f93a 9370 9239 6579 a83c
000000c0: 749a a03a 04e9 9939 2997 e539 78f2 dab9
000000d0: d20c abba 2d28 c138 3a54 1f3a 51ce d33a
000000e0: 92bf 8db9 e01b dc39 3d9b edba 086c cc38
000000f0: 2439 5f3b 9c18 f0b9 d355 eb39 2e92 933a
00000100: 4c4d b3b9 b6a3 893a 07c6 08bb 673e deba
00000110: 2518 98b9 74f9 ca3c fe2b ccb9 dcb0 eeb9
00000120: 4adc f63c 47d7 a1b9 329c f437 6fa1 053b
00000130: f913 82ba 636b 8fb9 e878 c7b9 e684 a9bb
00000140: 9d0c 8d3a 7588 283a 52c2 c3ba 4dbe 6039
00000150: 771d 53b9 07df eb39 ea74 93b9 84ea da3a
00000160: 37ae 13bc 8e36 fab8 d7cd 02bb ed6c debc
00000170: aaeb 16b9 8fa4 82bb 6553 98bc c2e0 ad3b
00000180: 29b8 d1ba 620e c2bb 2c32 9b3a 1c54 9139
00000190: 82f6 d3bc 6e55 ec3b 145b 84ba b56f 8c3a
000001a0: 27d0 b23c b5d1 14ba dc76 37ba 2430 a03a
000001b0: 9453 df3c e01c 94ba cb70 8e39 28e1 41ba
000001c0: 958a 7d3c 1efd 95bb a1f7 a93a beda c83a
000001d0: ef9e 493a 03a5 96b9 1b0d 9839 e196 0ebc
000001e0: 70f0 46bc aa3f 8a3a 7afc 14b9 0a33 be3c
000001f0: abb8 bcbc cff4 aab8 b226 833c 3a1d a138
0.00014973772 0.00051048707 -0.022712523 -0.00061425543 -0.0004235449 0.00028238472 0.002499848 0.0004024102
-0.002325574 0.015953291 0.00021048578 0.000927881 0.028232 0.0030785121 0.005211924 -0.00026611405
-0.0037699663 0.0020972544 0.0017144753 -0.00093049597 -0.02734363 0.025978638 0.00038288004 -0.00032607903
0.0022179822 0.0002869485 0.0005274976 -0.00094530324 -0.0023313689 -0.02656493 0.020900145 0.0035505085
-0.021973714 0.0021841084 0.001697243 0.022836015 0.0022715619 -0.0014514762 0.00039483674 0.005023261
-0.009370745 0.012106588 0.002198945 -0.0006808029 -0.007875496 0.0019053766 0.00027931164 0.020565698
0.0012253062 0.00029356044 0.00043790907 -0.00041760853 -0.0013050085 9.2104405e-05 0.00060779194 0.001615951
-0.00027036347 0.00041982438 -0.001812793 9.7476004e-05 0.0034061158 -0.00045794703 0.00044886637 0.0011258775
-0.0003419913 0.001050106 -0.0020869987 -0.0016955853 -0.00029009688 0.024777152 -0.0003894269 -0.00045526668
0.030134339 -0.00030868707 2.91598e-05 0.0020390411 -0.0009924165 -0.00027355095 -0.0003804632 -0.0051733134
0.0010761205 0.0006429025 -0.0014935231 0.00021433197 -0.00020133505 0.0004498886 -0.00028125133 0.0016701971
-0.009013704 -0.000119310906 -0.0019959116 -0.02715155 -0.00014392906 -0.003986902 -0.018594453 0.0053063342
-0.0016000319 -0.0059221247 0.0011840514 0.00027719222 -0.02587438 0.0072123324 -0.0010097944 0.0010714444
0.02182777 -0.0005677001 -0.00069986074 0.0012221378 0.027261533 -0.0011300109 0.00027168388 -0.00073959166
0.015474935 -0.004577293 0.0012967476 0.0015323979 0.00076912245 -0.00028733173 0.00029001464 -0.0087029645
-0.012142286 0.0010547538 -0.00014208435 0.023217697 -0.023037275 -8.151831e-05 0.016009662 7.682522e-05

classifier.fc.weight f4 [1, 128]
00000000: ee30 b13c ae82 1a3c be9e d03a 2c64 a13c
00000010: 367f fc3b 80c1 7e3b 7912 cb3c ef88 403c
00000020: c553 55bc 5d2b 023c da92 c93b b2bd 153b
00000030: 02ef b2bd 4487 783b 920f 183b b758 c93a
00000040: f55a f83b 89c8 a6bd d74a 793c 69e2 103c
00000050: 173a aa3c e5c7 b13b 2f3e e43a 3510 123b
00000060: b46e 60bc c55d 36be b902 243a 82a3 d2bc
00000070: a2c3 433c 8546 b03c 7fab a53b 12f0 d63c
00000080: 2355 e23c ab6b 063b ce46 613c a1ce a33b
00000090: 0286 3bbe 6b48 f23b 6d70 443a 1062 573b
000000a0: 2565 35bb 3274 163c d8de b9b9 8fad 21ba
000000b0: 4098 ec3b 8e34 e33c f5e9 003b 2def 323c
000000c0: 415f 713b aa84 593c bfa7 903c ceab ac3c
000000d0: 609c 073c f500 613c d3b3 983b 46de 16b8
000000e0: 9647 bb3b 979f a53b cfee 6a3b 8c08 fc3a
000000f0: 948a 103c 241a d9bd c0d6 763a 0e91 5fbd
00000100: c170 4e3a 1575 41bd 93e0 7dba 4a5a 383c
00000110: 242a f73a aac7 853c 3b93 0c3d 9d19 913c
00000120: 42d3 203c fa75 aabd bc51 363a 79ac 893c
00000130: e11a 2d3c d40d 89bb 7b84 043b f0ce 523c
00000140: 35f3 613c 81b5 853c e375 8c3c 6fb8 0f3c
00000150: 719c d73b 02c5 9f3b 8a17 cc3c ce0c c83b
00000160: 210c 203c 4c36 3eba e3b7 ea3a 5579 233c
00000170: e3ec 053a 9e84 01ba f44f e33c ebf3 f339
00000180: aced 00bb 6bbb 71ba 519e ae3c 66b9 ebbc
00000190: 5790 713c ae76 223c 3692 213c 8386 c43a
000001a0: eeff e13b d60c 20bc 583c 4abd 98cd 3138
000001b0: 5830 cdbd ee98 7e3c 4796 d43b b648 203c
000001c0: b15f d83c 4350 9e3b 6f4b ae3c aa2e 273b
000001d0: 7804 913a 985e 433c be3d dd3a 7268 003a
000001e0: 405c 8f3b dfca 803a 0781 bc3c 2cdd 3e38
000001f0: 3b58 313b d6d7 9e3a 3a5b 79bd 8054 683c
0.021629777 0.0094305705 0.001591645 0.019701086 0.0077055944 0.003887266 0.024789082 0.0117513975
-0.0130204605 0.007944909 0.0061515393 0.0022848663 -0.08736993 0.0037922421 0.002320264 0.0015361522
0.0075792023 -0.08143718 0.015215597 0.008843043 0.020779653 0.0054254406 0.0017413552 0.0022287492
-0.013698269 -0.17809208 0.0006256509 -0.025712732 0.011948498 0.021518001 0.0050558443 0.026237521
0.027628487 0.0020510952 0.013749791 0.0049989973 -0.18312839 0.007393887 0.00074935594 0.0032864846
-0.0027678695 0.009182977 -0.0003545198 -0.0006167525 0.007220298 0.027735021 0.00196707 0.010921282
0.0036830457 0.0132762585 0.017658113 0.021078017 0.008277029 0.013733138 0.0046601086 -3.5969795e-05
0.005715321 0.005054425 0.0035847907 0.0019228621 0.008822102 -0.10600689 0.00094161555 -0.054581694
0.0007875078 -0.0472308 -0.0009684648 0.011251995 0.0018857163 0.016330559 0.034320097 0.017712409
0.009815993 -0.083232835 0.00069549284 0.016805874 0.01056549 -0.0041825566 0.0020220566 0.012866721
0.013790895 0.0163219 0.017146057 0.008772 0.0065799286 0.00487578 0.024913568 0.006105042
0.009768517 -0.00072560157 0.0017907586 0.009977658 0.0005108846 -0.0004940721 0.027748086 0.00046530305
-0.0019672913 -0.0009221348 0.021315726 -0.028774928 0.014743886 0.009915991 0.00986152 0.0014993701
0.0068969643 -0.009768685 -0.049373955 4.2391563e-05 -0.100189865 0.015539391 0.006487641 0.009782961
0.026412817 0.0048313453 0.021276204 0.0025509992 0.0011063954 0.011924408 0.0016879363 0.0004898376
0.0043750107 0.0009826085 0.023010744 4.5505512e-05 0.0027060646 0.0012118767 -0.060878016 0.014180303
